node {
  name: "Train/Model/x"
  op: "Placeholder"
  attr {
    key: "_output_shapes"
    value {
      list {
        shape {
          dim {
            size: -1
          }
          dim {
            size: 5
          }
        }
      }
    }
  }
  attr {
    key: "dtype"
    value {
      type: DT_INT32
    }
  }
  attr {
    key: "shape"
    value {
      shape {
      }
    }
  }
}
node {
  name: "Train/Model/y_"
  op: "Placeholder"
  attr {
    key: "_output_shapes"
    value {
      list {
        shape {
          dim {
            size: -1
          }
          dim {
            size: 5
          }
        }
      }
    }
  }
  attr {
    key: "dtype"
    value {
      type: DT_INT32
    }
  }
  attr {
    key: "shape"
    value {
      shape {
      }
    }
  }
}
node {
  name: "Model/embedding_weights/Initializer/random_uniform/shape"
  op: "Const"
  attr {
    key: "_class"
    value {
      list {
        s: "loc:@Model/embedding_weights"
      }
    }
  }
  attr {
    key: "_output_shapes"
    value {
      list {
        shape {
          dim {
            size: 2
          }
        }
      }
    }
  }
  attr {
    key: "dtype"
    value {
      type: DT_INT32
    }
  }
  attr {
    key: "value"
    value {
      tensor {
        dtype: DT_INT32
        tensor_shape {
          dim {
            size: 2
          }
        }
        tensor_content: "\340.\000\000\000\001\000\000"
      }
    }
  }
}
node {
  name: "Model/embedding_weights/Initializer/random_uniform/min"
  op: "Const"
  attr {
    key: "_class"
    value {
      list {
        s: "loc:@Model/embedding_weights"
      }
    }
  }
  attr {
    key: "_output_shapes"
    value {
      list {
        shape {
        }
      }
    }
  }
  attr {
    key: "dtype"
    value {
      type: DT_FLOAT
    }
  }
  attr {
    key: "value"
    value {
      tensor {
        dtype: DT_FLOAT
        tensor_shape {
        }
        float_val: -0.10000000149
      }
    }
  }
}
node {
  name: "Model/embedding_weights/Initializer/random_uniform/max"
  op: "Const"
  attr {
    key: "_class"
    value {
      list {
        s: "loc:@Model/embedding_weights"
      }
    }
  }
  attr {
    key: "_output_shapes"
    value {
      list {
        shape {
        }
      }
    }
  }
  attr {
    key: "dtype"
    value {
      type: DT_FLOAT
    }
  }
  attr {
    key: "value"
    value {
      tensor {
        dtype: DT_FLOAT
        tensor_shape {
        }
        float_val: 0.10000000149
      }
    }
  }
}
node {
  name: "Model/embedding_weights/Initializer/random_uniform/RandomUniform"
  op: "RandomUniform"
  input: "Model/embedding_weights/Initializer/random_uniform/shape"
  attr {
    key: "T"
    value {
      type: DT_INT32
    }
  }
  attr {
    key: "_class"
    value {
      list {
        s: "loc:@Model/embedding_weights"
      }
    }
  }
  attr {
    key: "_output_shapes"
    value {
      list {
        shape {
          dim {
            size: 12000
          }
          dim {
            size: 256
          }
        }
      }
    }
  }
  attr {
    key: "dtype"
    value {
      type: DT_FLOAT
    }
  }
  attr {
    key: "seed"
    value {
      i: 87654321
    }
  }
  attr {
    key: "seed2"
    value {
      i: 1234
    }
  }
}
node {
  name: "Model/embedding_weights/Initializer/random_uniform/sub"
  op: "Sub"
  input: "Model/embedding_weights/Initializer/random_uniform/max"
  input: "Model/embedding_weights/Initializer/random_uniform/min"
  attr {
    key: "T"
    value {
      type: DT_FLOAT
    }
  }
  attr {
    key: "_class"
    value {
      list {
        s: "loc:@Model/embedding_weights"
      }
    }
  }
  attr {
    key: "_output_shapes"
    value {
      list {
        shape {
        }
      }
    }
  }
}
node {
  name: "Model/embedding_weights/Initializer/random_uniform/mul"
  op: "Mul"
  input: "Model/embedding_weights/Initializer/random_uniform/RandomUniform"
  input: "Model/embedding_weights/Initializer/random_uniform/sub"
  attr {
    key: "T"
    value {
      type: DT_FLOAT
    }
  }
  attr {
    key: "_class"
    value {
      list {
        s: "loc:@Model/embedding_weights"
      }
    }
  }
  attr {
    key: "_output_shapes"
    value {
      list {
        shape {
          dim {
            size: 12000
          }
          dim {
            size: 256
          }
        }
      }
    }
  }
}
node {
  name: "Model/embedding_weights/Initializer/random_uniform"
  op: "Add"
  input: "Model/embedding_weights/Initializer/random_uniform/mul"
  input: "Model/embedding_weights/Initializer/random_uniform/min"
  attr {
    key: "T"
    value {
      type: DT_FLOAT
    }
  }
  attr {
    key: "_class"
    value {
      list {
        s: "loc:@Model/embedding_weights"
      }
    }
  }
  attr {
    key: "_output_shapes"
    value {
      list {
        shape {
          dim {
            size: 12000
          }
          dim {
            size: 256
          }
        }
      }
    }
  }
}
node {
  name: "Model/embedding_weights"
  op: "VariableV2"
  attr {
    key: "_class"
    value {
      list {
        s: "loc:@Model/embedding_weights"
      }
    }
  }
  attr {
    key: "_output_shapes"
    value {
      list {
        shape {
          dim {
            size: 12000
          }
          dim {
            size: 256
          }
        }
      }
    }
  }
  attr {
    key: "container"
    value {
      s: ""
    }
  }
  attr {
    key: "dtype"
    value {
      type: DT_FLOAT
    }
  }
  attr {
    key: "shape"
    value {
      shape {
        dim {
          size: 12000
        }
        dim {
          size: 256
        }
      }
    }
  }
  attr {
    key: "shared_name"
    value {
      s: ""
    }
  }
}
node {
  name: "Model/embedding_weights/Assign"
  op: "Assign"
  input: "Model/embedding_weights"
  input: "Model/embedding_weights/Initializer/random_uniform"
  attr {
    key: "T"
    value {
      type: DT_FLOAT
    }
  }
  attr {
    key: "_class"
    value {
      list {
        s: "loc:@Model/embedding_weights"
      }
    }
  }
  attr {
    key: "_output_shapes"
    value {
      list {
        shape {
          dim {
            size: 12000
          }
          dim {
            size: 256
          }
        }
      }
    }
  }
  attr {
    key: "use_locking"
    value {
      b: true
    }
  }
  attr {
    key: "validate_shape"
    value {
      b: true
    }
  }
}
node {
  name: "Model/embedding_weights/read"
  op: "Identity"
  input: "Model/embedding_weights"
  attr {
    key: "T"
    value {
      type: DT_FLOAT
    }
  }
  attr {
    key: "_class"
    value {
      list {
        s: "loc:@Model/embedding_weights"
      }
    }
  }
  attr {
    key: "_output_shapes"
    value {
      list {
        shape {
          dim {
            size: 12000
          }
          dim {
            size: 256
          }
        }
      }
    }
  }
}
node {
  name: "Train/Model/embedding_lookup"
  op: "Gather"
  input: "Model/embedding_weights/read"
  input: "Train/Model/x"
  attr {
    key: "Tindices"
    value {
      type: DT_INT32
    }
  }
  attr {
    key: "Tparams"
    value {
      type: DT_FLOAT
    }
  }
  attr {
    key: "_class"
    value {
      list {
        s: "loc:@Model/embedding_weights"
      }
    }
  }
  attr {
    key: "_output_shapes"
    value {
      list {
        shape {
          dim {
            size: -1
          }
          dim {
            size: 5
          }
          dim {
            size: 256
          }
        }
      }
    }
  }
  attr {
    key: "validate_indices"
    value {
      b: true
    }
  }
}
node {
  name: "Train/Model/dropout/keep_prob"
  op: "Const"
  attr {
    key: "_output_shapes"
    value {
      list {
        shape {
        }
      }
    }
  }
  attr {
    key: "dtype"
    value {
      type: DT_FLOAT
    }
  }
  attr {
    key: "value"
    value {
      tensor {
        dtype: DT_FLOAT
        tensor_shape {
        }
        float_val: 1.0
      }
    }
  }
}
node {
  name: "Train/Model/lstm/stack"
  op: "Const"
  attr {
    key: "_output_shapes"
    value {
      list {
        shape {
          dim {
            size: 2
          }
        }
      }
    }
  }
  attr {
    key: "dtype"
    value {
      type: DT_INT32
    }
  }
  attr {
    key: "value"
    value {
      tensor {
        dtype: DT_INT32
        tensor_shape {
          dim {
            size: 2
          }
        }
        tensor_content: "\200\000\000\000\000\001\000\000"
      }
    }
  }
}
node {
  name: "Train/Model/lstm/zeros/Const"
  op: "Const"
  attr {
    key: "_output_shapes"
    value {
      list {
        shape {
        }
      }
    }
  }
  attr {
    key: "dtype"
    value {
      type: DT_FLOAT
    }
  }
  attr {
    key: "value"
    value {
      tensor {
        dtype: DT_FLOAT
        tensor_shape {
        }
        float_val: 0.0
      }
    }
  }
}
node {
  name: "Train/Model/lstm/zeros"
  op: "Fill"
  input: "Train/Model/lstm/stack"
  input: "Train/Model/lstm/zeros/Const"
  attr {
    key: "T"
    value {
      type: DT_FLOAT
    }
  }
  attr {
    key: "_output_shapes"
    value {
      list {
        shape {
          dim {
            size: 128
          }
          dim {
            size: 256
          }
        }
      }
    }
  }
}
node {
  name: "Train/Model/lstm/stack_1"
  op: "Const"
  attr {
    key: "_output_shapes"
    value {
      list {
        shape {
          dim {
            size: 2
          }
        }
      }
    }
  }
  attr {
    key: "dtype"
    value {
      type: DT_INT32
    }
  }
  attr {
    key: "value"
    value {
      tensor {
        dtype: DT_INT32
        tensor_shape {
          dim {
            size: 2
          }
        }
        tensor_content: "\200\000\000\000\000\001\000\000"
      }
    }
  }
}
node {
  name: "Train/Model/lstm/zeros_1/Const"
  op: "Const"
  attr {
    key: "_output_shapes"
    value {
      list {
        shape {
        }
      }
    }
  }
  attr {
    key: "dtype"
    value {
      type: DT_FLOAT
    }
  }
  attr {
    key: "value"
    value {
      tensor {
        dtype: DT_FLOAT
        tensor_shape {
        }
        float_val: 0.0
      }
    }
  }
}
node {
  name: "Train/Model/lstm/zeros_1"
  op: "Fill"
  input: "Train/Model/lstm/stack_1"
  input: "Train/Model/lstm/zeros_1/Const"
  attr {
    key: "T"
    value {
      type: DT_FLOAT
    }
  }
  attr {
    key: "_output_shapes"
    value {
      list {
        shape {
          dim {
            size: 128
          }
          dim {
            size: 256
          }
        }
      }
    }
  }
}
node {
  name: "Train/Model/lstm/stack_2"
  op: "Const"
  attr {
    key: "_output_shapes"
    value {
      list {
        shape {
          dim {
            size: 2
          }
        }
      }
    }
  }
  attr {
    key: "dtype"
    value {
      type: DT_INT32
    }
  }
  attr {
    key: "value"
    value {
      tensor {
        dtype: DT_INT32
        tensor_shape {
          dim {
            size: 2
          }
        }
        tensor_content: "\200\000\000\000\000\001\000\000"
      }
    }
  }
}
node {
  name: "Train/Model/lstm/zeros_2/Const"
  op: "Const"
  attr {
    key: "_output_shapes"
    value {
      list {
        shape {
        }
      }
    }
  }
  attr {
    key: "dtype"
    value {
      type: DT_FLOAT
    }
  }
  attr {
    key: "value"
    value {
      tensor {
        dtype: DT_FLOAT
        tensor_shape {
        }
        float_val: 0.0
      }
    }
  }
}
node {
  name: "Train/Model/lstm/zeros_2"
  op: "Fill"
  input: "Train/Model/lstm/stack_2"
  input: "Train/Model/lstm/zeros_2/Const"
  attr {
    key: "T"
    value {
      type: DT_FLOAT
    }
  }
  attr {
    key: "_output_shapes"
    value {
      list {
        shape {
          dim {
            size: 128
          }
          dim {
            size: 256
          }
        }
      }
    }
  }
}
node {
  name: "Train/Model/lstm/stack_3"
  op: "Const"
  attr {
    key: "_output_shapes"
    value {
      list {
        shape {
          dim {
            size: 2
          }
        }
      }
    }
  }
  attr {
    key: "dtype"
    value {
      type: DT_INT32
    }
  }
  attr {
    key: "value"
    value {
      tensor {
        dtype: DT_INT32
        tensor_shape {
          dim {
            size: 2
          }
        }
        tensor_content: "\200\000\000\000\000\001\000\000"
      }
    }
  }
}
node {
  name: "Train/Model/lstm/zeros_3/Const"
  op: "Const"
  attr {
    key: "_output_shapes"
    value {
      list {
        shape {
        }
      }
    }
  }
  attr {
    key: "dtype"
    value {
      type: DT_FLOAT
    }
  }
  attr {
    key: "value"
    value {
      tensor {
        dtype: DT_FLOAT
        tensor_shape {
        }
        float_val: 0.0
      }
    }
  }
}
node {
  name: "Train/Model/lstm/zeros_3"
  op: "Fill"
  input: "Train/Model/lstm/stack_3"
  input: "Train/Model/lstm/zeros_3/Const"
  attr {
    key: "T"
    value {
      type: DT_FLOAT
    }
  }
  attr {
    key: "_output_shapes"
    value {
      list {
        shape {
          dim {
            size: 128
          }
          dim {
            size: 256
          }
        }
      }
    }
  }
}
node {
  name: "Train/Model/lstm/strided_slice/stack"
  op: "Const"
  attr {
    key: "_output_shapes"
    value {
      list {
        shape {
          dim {
            size: 3
          }
        }
      }
    }
  }
  attr {
    key: "dtype"
    value {
      type: DT_INT32
    }
  }
  attr {
    key: "value"
    value {
      tensor {
        dtype: DT_INT32
        tensor_shape {
          dim {
            size: 3
          }
        }
        tensor_content: "\000\000\000\000\000\000\000\000\000\000\000\000"
      }
    }
  }
}
node {
  name: "Train/Model/lstm/strided_slice/stack_1"
  op: "Const"
  attr {
    key: "_output_shapes"
    value {
      list {
        shape {
          dim {
            size: 3
          }
        }
      }
    }
  }
  attr {
    key: "dtype"
    value {
      type: DT_INT32
    }
  }
  attr {
    key: "value"
    value {
      tensor {
        dtype: DT_INT32
        tensor_shape {
          dim {
            size: 3
          }
        }
        tensor_content: "\000\000\000\000\001\000\000\000\000\000\000\000"
      }
    }
  }
}
node {
  name: "Train/Model/lstm/strided_slice/stack_2"
  op: "Const"
  attr {
    key: "_output_shapes"
    value {
      list {
        shape {
          dim {
            size: 3
          }
        }
      }
    }
  }
  attr {
    key: "dtype"
    value {
      type: DT_INT32
    }
  }
  attr {
    key: "value"
    value {
      tensor {
        dtype: DT_INT32
        tensor_shape {
          dim {
            size: 3
          }
        }
        tensor_content: "\001\000\000\000\001\000\000\000\001\000\000\000"
      }
    }
  }
}
node {
  name: "Train/Model/lstm/strided_slice"
  op: "StridedSlice"
  input: "Train/Model/embedding_lookup"
  input: "Train/Model/lstm/strided_slice/stack"
  input: "Train/Model/lstm/strided_slice/stack_1"
  input: "Train/Model/lstm/strided_slice/stack_2"
  attr {
    key: "Index"
    value {
      type: DT_INT32
    }
  }
  attr {
    key: "T"
    value {
      type: DT_FLOAT
    }
  }
  attr {
    key: "_output_shapes"
    value {
      list {
        shape {
          dim {
            size: -1
          }
          dim {
            size: 256
          }
        }
      }
    }
  }
  attr {
    key: "begin_mask"
    value {
      i: 5
    }
  }
  attr {
    key: "ellipsis_mask"
    value {
      i: 0
    }
  }
  attr {
    key: "end_mask"
    value {
      i: 5
    }
  }
  attr {
    key: "new_axis_mask"
    value {
      i: 0
    }
  }
  attr {
    key: "shrink_axis_mask"
    value {
      i: 2
    }
  }
}
node {
  name: "Model/lstm/multi_rnn_cell/cell_0/basic_lstm_cell/weights/Initializer/random_uniform/shape"
  op: "Const"
  attr {
    key: "_class"
    value {
      list {
        s: "loc:@Model/lstm/multi_rnn_cell/cell_0/basic_lstm_cell/weights"
      }
    }
  }
  attr {
    key: "_output_shapes"
    value {
      list {
        shape {
          dim {
            size: 2
          }
        }
      }
    }
  }
  attr {
    key: "dtype"
    value {
      type: DT_INT32
    }
  }
  attr {
    key: "value"
    value {
      tensor {
        dtype: DT_INT32
        tensor_shape {
          dim {
            size: 2
          }
        }
        tensor_content: "\000\002\000\000\000\004\000\000"
      }
    }
  }
}
node {
  name: "Model/lstm/multi_rnn_cell/cell_0/basic_lstm_cell/weights/Initializer/random_uniform/min"
  op: "Const"
  attr {
    key: "_class"
    value {
      list {
        s: "loc:@Model/lstm/multi_rnn_cell/cell_0/basic_lstm_cell/weights"
      }
    }
  }
  attr {
    key: "_output_shapes"
    value {
      list {
        shape {
        }
      }
    }
  }
  attr {
    key: "dtype"
    value {
      type: DT_FLOAT
    }
  }
  attr {
    key: "value"
    value {
      tensor {
        dtype: DT_FLOAT
        tensor_shape {
        }
        float_val: -0.10000000149
      }
    }
  }
}
node {
  name: "Model/lstm/multi_rnn_cell/cell_0/basic_lstm_cell/weights/Initializer/random_uniform/max"
  op: "Const"
  attr {
    key: "_class"
    value {
      list {
        s: "loc:@Model/lstm/multi_rnn_cell/cell_0/basic_lstm_cell/weights"
      }
    }
  }
  attr {
    key: "_output_shapes"
    value {
      list {
        shape {
        }
      }
    }
  }
  attr {
    key: "dtype"
    value {
      type: DT_FLOAT
    }
  }
  attr {
    key: "value"
    value {
      tensor {
        dtype: DT_FLOAT
        tensor_shape {
        }
        float_val: 0.10000000149
      }
    }
  }
}
node {
  name: "Model/lstm/multi_rnn_cell/cell_0/basic_lstm_cell/weights/Initializer/random_uniform/RandomUniform"
  op: "RandomUniform"
  input: "Model/lstm/multi_rnn_cell/cell_0/basic_lstm_cell/weights/Initializer/random_uniform/shape"
  attr {
    key: "T"
    value {
      type: DT_INT32
    }
  }
  attr {
    key: "_class"
    value {
      list {
        s: "loc:@Model/lstm/multi_rnn_cell/cell_0/basic_lstm_cell/weights"
      }
    }
  }
  attr {
    key: "_output_shapes"
    value {
      list {
        shape {
          dim {
            size: 512
          }
          dim {
            size: 1024
          }
        }
      }
    }
  }
  attr {
    key: "dtype"
    value {
      type: DT_FLOAT
    }
  }
  attr {
    key: "seed"
    value {
      i: 87654321
    }
  }
  attr {
    key: "seed2"
    value {
      i: 1234
    }
  }
}
node {
  name: "Model/lstm/multi_rnn_cell/cell_0/basic_lstm_cell/weights/Initializer/random_uniform/sub"
  op: "Sub"
  input: "Model/lstm/multi_rnn_cell/cell_0/basic_lstm_cell/weights/Initializer/random_uniform/max"
  input: "Model/lstm/multi_rnn_cell/cell_0/basic_lstm_cell/weights/Initializer/random_uniform/min"
  attr {
    key: "T"
    value {
      type: DT_FLOAT
    }
  }
  attr {
    key: "_class"
    value {
      list {
        s: "loc:@Model/lstm/multi_rnn_cell/cell_0/basic_lstm_cell/weights"
      }
    }
  }
  attr {
    key: "_output_shapes"
    value {
      list {
        shape {
        }
      }
    }
  }
}
node {
  name: "Model/lstm/multi_rnn_cell/cell_0/basic_lstm_cell/weights/Initializer/random_uniform/mul"
  op: "Mul"
  input: "Model/lstm/multi_rnn_cell/cell_0/basic_lstm_cell/weights/Initializer/random_uniform/RandomUniform"
  input: "Model/lstm/multi_rnn_cell/cell_0/basic_lstm_cell/weights/Initializer/random_uniform/sub"
  attr {
    key: "T"
    value {
      type: DT_FLOAT
    }
  }
  attr {
    key: "_class"
    value {
      list {
        s: "loc:@Model/lstm/multi_rnn_cell/cell_0/basic_lstm_cell/weights"
      }
    }
  }
  attr {
    key: "_output_shapes"
    value {
      list {
        shape {
          dim {
            size: 512
          }
          dim {
            size: 1024
          }
        }
      }
    }
  }
}
node {
  name: "Model/lstm/multi_rnn_cell/cell_0/basic_lstm_cell/weights/Initializer/random_uniform"
  op: "Add"
  input: "Model/lstm/multi_rnn_cell/cell_0/basic_lstm_cell/weights/Initializer/random_uniform/mul"
  input: "Model/lstm/multi_rnn_cell/cell_0/basic_lstm_cell/weights/Initializer/random_uniform/min"
  attr {
    key: "T"
    value {
      type: DT_FLOAT
    }
  }
  attr {
    key: "_class"
    value {
      list {
        s: "loc:@Model/lstm/multi_rnn_cell/cell_0/basic_lstm_cell/weights"
      }
    }
  }
  attr {
    key: "_output_shapes"
    value {
      list {
        shape {
          dim {
            size: 512
          }
          dim {
            size: 1024
          }
        }
      }
    }
  }
}
node {
  name: "Model/lstm/multi_rnn_cell/cell_0/basic_lstm_cell/weights"
  op: "VariableV2"
  attr {
    key: "_class"
    value {
      list {
        s: "loc:@Model/lstm/multi_rnn_cell/cell_0/basic_lstm_cell/weights"
      }
    }
  }
  attr {
    key: "_output_shapes"
    value {
      list {
        shape {
          dim {
            size: 512
          }
          dim {
            size: 1024
          }
        }
      }
    }
  }
  attr {
    key: "container"
    value {
      s: ""
    }
  }
  attr {
    key: "dtype"
    value {
      type: DT_FLOAT
    }
  }
  attr {
    key: "shape"
    value {
      shape {
        dim {
          size: 512
        }
        dim {
          size: 1024
        }
      }
    }
  }
  attr {
    key: "shared_name"
    value {
      s: ""
    }
  }
}
node {
  name: "Model/lstm/multi_rnn_cell/cell_0/basic_lstm_cell/weights/Assign"
  op: "Assign"
  input: "Model/lstm/multi_rnn_cell/cell_0/basic_lstm_cell/weights"
  input: "Model/lstm/multi_rnn_cell/cell_0/basic_lstm_cell/weights/Initializer/random_uniform"
  attr {
    key: "T"
    value {
      type: DT_FLOAT
    }
  }
  attr {
    key: "_class"
    value {
      list {
        s: "loc:@Model/lstm/multi_rnn_cell/cell_0/basic_lstm_cell/weights"
      }
    }
  }
  attr {
    key: "_output_shapes"
    value {
      list {
        shape {
          dim {
            size: 512
          }
          dim {
            size: 1024
          }
        }
      }
    }
  }
  attr {
    key: "use_locking"
    value {
      b: true
    }
  }
  attr {
    key: "validate_shape"
    value {
      b: true
    }
  }
}
node {
  name: "Model/lstm/multi_rnn_cell/cell_0/basic_lstm_cell/weights/read"
  op: "Identity"
  input: "Model/lstm/multi_rnn_cell/cell_0/basic_lstm_cell/weights"
  attr {
    key: "T"
    value {
      type: DT_FLOAT
    }
  }
  attr {
    key: "_class"
    value {
      list {
        s: "loc:@Model/lstm/multi_rnn_cell/cell_0/basic_lstm_cell/weights"
      }
    }
  }
  attr {
    key: "_output_shapes"
    value {
      list {
        shape {
          dim {
            size: 512
          }
          dim {
            size: 1024
          }
        }
      }
    }
  }
}
node {
  name: "Train/Model/lstm/multi_rnn_cell/cell_0/basic_lstm_cell/basic_lstm_cell/concat/axis"
  op: "Const"
  attr {
    key: "_output_shapes"
    value {
      list {
        shape {
        }
      }
    }
  }
  attr {
    key: "dtype"
    value {
      type: DT_INT32
    }
  }
  attr {
    key: "value"
    value {
      tensor {
        dtype: DT_INT32
        tensor_shape {
        }
        int_val: 1
      }
    }
  }
}
node {
  name: "Train/Model/lstm/multi_rnn_cell/cell_0/basic_lstm_cell/basic_lstm_cell/concat"
  op: "ConcatV2"
  input: "Train/Model/lstm/strided_slice"
  input: "Train/Model/lstm/zeros_1"
  input: "Train/Model/lstm/multi_rnn_cell/cell_0/basic_lstm_cell/basic_lstm_cell/concat/axis"
  attr {
    key: "N"
    value {
      i: 2
    }
  }
  attr {
    key: "T"
    value {
      type: DT_FLOAT
    }
  }
  attr {
    key: "Tidx"
    value {
      type: DT_INT32
    }
  }
  attr {
    key: "_output_shapes"
    value {
      list {
        shape {
          dim {
            size: 128
          }
          dim {
            size: 512
          }
        }
      }
    }
  }
}
node {
  name: "Train/Model/lstm/multi_rnn_cell/cell_0/basic_lstm_cell/basic_lstm_cell/MatMul"
  op: "MatMul"
  input: "Train/Model/lstm/multi_rnn_cell/cell_0/basic_lstm_cell/basic_lstm_cell/concat"
  input: "Model/lstm/multi_rnn_cell/cell_0/basic_lstm_cell/weights/read"
  attr {
    key: "T"
    value {
      type: DT_FLOAT
    }
  }
  attr {
    key: "_output_shapes"
    value {
      list {
        shape {
          dim {
            size: 128
          }
          dim {
            size: 1024
          }
        }
      }
    }
  }
  attr {
    key: "transpose_a"
    value {
      b: false
    }
  }
  attr {
    key: "transpose_b"
    value {
      b: false
    }
  }
}
node {
  name: "Model/lstm/multi_rnn_cell/cell_0/basic_lstm_cell/biases/Initializer/Const"
  op: "Const"
  attr {
    key: "_class"
    value {
      list {
        s: "loc:@Model/lstm/multi_rnn_cell/cell_0/basic_lstm_cell/biases"
      }
    }
  }
  attr {
    key: "_output_shapes"
    value {
      list {
        shape {
          dim {
            size: 1024
          }
        }
      }
    }
  }
  attr {
    key: "dtype"
    value {
      type: DT_FLOAT
    }
  }
  attr {
    key: "value"
    value {
      tensor {
        dtype: DT_FLOAT
        tensor_shape {
          dim {
            size: 1024
          }
        }
        float_val: 0.0
      }
    }
  }
}
node {
  name: "Model/lstm/multi_rnn_cell/cell_0/basic_lstm_cell/biases"
  op: "VariableV2"
  attr {
    key: "_class"
    value {
      list {
        s: "loc:@Model/lstm/multi_rnn_cell/cell_0/basic_lstm_cell/biases"
      }
    }
  }
  attr {
    key: "_output_shapes"
    value {
      list {
        shape {
          dim {
            size: 1024
          }
        }
      }
    }
  }
  attr {
    key: "container"
    value {
      s: ""
    }
  }
  attr {
    key: "dtype"
    value {
      type: DT_FLOAT
    }
  }
  attr {
    key: "shape"
    value {
      shape {
        dim {
          size: 1024
        }
      }
    }
  }
  attr {
    key: "shared_name"
    value {
      s: ""
    }
  }
}
node {
  name: "Model/lstm/multi_rnn_cell/cell_0/basic_lstm_cell/biases/Assign"
  op: "Assign"
  input: "Model/lstm/multi_rnn_cell/cell_0/basic_lstm_cell/biases"
  input: "Model/lstm/multi_rnn_cell/cell_0/basic_lstm_cell/biases/Initializer/Const"
  attr {
    key: "T"
    value {
      type: DT_FLOAT
    }
  }
  attr {
    key: "_class"
    value {
      list {
        s: "loc:@Model/lstm/multi_rnn_cell/cell_0/basic_lstm_cell/biases"
      }
    }
  }
  attr {
    key: "_output_shapes"
    value {
      list {
        shape {
          dim {
            size: 1024
          }
        }
      }
    }
  }
  attr {
    key: "use_locking"
    value {
      b: true
    }
  }
  attr {
    key: "validate_shape"
    value {
      b: true
    }
  }
}
node {
  name: "Model/lstm/multi_rnn_cell/cell_0/basic_lstm_cell/biases/read"
  op: "Identity"
  input: "Model/lstm/multi_rnn_cell/cell_0/basic_lstm_cell/biases"
  attr {
    key: "T"
    value {
      type: DT_FLOAT
    }
  }
  attr {
    key: "_class"
    value {
      list {
        s: "loc:@Model/lstm/multi_rnn_cell/cell_0/basic_lstm_cell/biases"
      }
    }
  }
  attr {
    key: "_output_shapes"
    value {
      list {
        shape {
          dim {
            size: 1024
          }
        }
      }
    }
  }
}
node {
  name: "Train/Model/lstm/multi_rnn_cell/cell_0/basic_lstm_cell/BiasAdd"
  op: "BiasAdd"
  input: "Train/Model/lstm/multi_rnn_cell/cell_0/basic_lstm_cell/basic_lstm_cell/MatMul"
  input: "Model/lstm/multi_rnn_cell/cell_0/basic_lstm_cell/biases/read"
  attr {
    key: "T"
    value {
      type: DT_FLOAT
    }
  }
  attr {
    key: "_output_shapes"
    value {
      list {
        shape {
          dim {
            size: 128
          }
          dim {
            size: 1024
          }
        }
      }
    }
  }
  attr {
    key: "data_format"
    value {
      s: "NHWC"
    }
  }
}
node {
  name: "Train/Model/lstm/multi_rnn_cell/cell_0/basic_lstm_cell/split/split_dim"
  op: "Const"
  attr {
    key: "_output_shapes"
    value {
      list {
        shape {
        }
      }
    }
  }
  attr {
    key: "dtype"
    value {
      type: DT_INT32
    }
  }
  attr {
    key: "value"
    value {
      tensor {
        dtype: DT_INT32
        tensor_shape {
        }
        int_val: 1
      }
    }
  }
}
node {
  name: "Train/Model/lstm/multi_rnn_cell/cell_0/basic_lstm_cell/split"
  op: "Split"
  input: "Train/Model/lstm/multi_rnn_cell/cell_0/basic_lstm_cell/split/split_dim"
  input: "Train/Model/lstm/multi_rnn_cell/cell_0/basic_lstm_cell/BiasAdd"
  attr {
    key: "T"
    value {
      type: DT_FLOAT
    }
  }
  attr {
    key: "_output_shapes"
    value {
      list {
        shape {
          dim {
            size: 128
          }
          dim {
            size: 256
          }
        }
        shape {
          dim {
            size: 128
          }
          dim {
            size: 256
          }
        }
        shape {
          dim {
            size: 128
          }
          dim {
            size: 256
          }
        }
        shape {
          dim {
            size: 128
          }
          dim {
            size: 256
          }
        }
      }
    }
  }
  attr {
    key: "num_split"
    value {
      i: 4
    }
  }
}
node {
  name: "Train/Model/lstm/multi_rnn_cell/cell_0/basic_lstm_cell/add/y"
  op: "Const"
  attr {
    key: "_output_shapes"
    value {
      list {
        shape {
        }
      }
    }
  }
  attr {
    key: "dtype"
    value {
      type: DT_FLOAT
    }
  }
  attr {
    key: "value"
    value {
      tensor {
        dtype: DT_FLOAT
        tensor_shape {
        }
        float_val: 0.0
      }
    }
  }
}
node {
  name: "Train/Model/lstm/multi_rnn_cell/cell_0/basic_lstm_cell/add"
  op: "Add"
  input: "Train/Model/lstm/multi_rnn_cell/cell_0/basic_lstm_cell/split:2"
  input: "Train/Model/lstm/multi_rnn_cell/cell_0/basic_lstm_cell/add/y"
  attr {
    key: "T"
    value {
      type: DT_FLOAT
    }
  }
  attr {
    key: "_output_shapes"
    value {
      list {
        shape {
          dim {
            size: 128
          }
          dim {
            size: 256
          }
        }
      }
    }
  }
}
node {
  name: "Train/Model/lstm/multi_rnn_cell/cell_0/basic_lstm_cell/Sigmoid"
  op: "Sigmoid"
  input: "Train/Model/lstm/multi_rnn_cell/cell_0/basic_lstm_cell/add"
  attr {
    key: "T"
    value {
      type: DT_FLOAT
    }
  }
  attr {
    key: "_output_shapes"
    value {
      list {
        shape {
          dim {
            size: 128
          }
          dim {
            size: 256
          }
        }
      }
    }
  }
}
node {
  name: "Train/Model/lstm/multi_rnn_cell/cell_0/basic_lstm_cell/mul"
  op: "Mul"
  input: "Train/Model/lstm/zeros"
  input: "Train/Model/lstm/multi_rnn_cell/cell_0/basic_lstm_cell/Sigmoid"
  attr {
    key: "T"
    value {
      type: DT_FLOAT
    }
  }
  attr {
    key: "_output_shapes"
    value {
      list {
        shape {
          dim {
            size: 128
          }
          dim {
            size: 256
          }
        }
      }
    }
  }
}
node {
  name: "Train/Model/lstm/multi_rnn_cell/cell_0/basic_lstm_cell/Sigmoid_1"
  op: "Sigmoid"
  input: "Train/Model/lstm/multi_rnn_cell/cell_0/basic_lstm_cell/split"
  attr {
    key: "T"
    value {
      type: DT_FLOAT
    }
  }
  attr {
    key: "_output_shapes"
    value {
      list {
        shape {
          dim {
            size: 128
          }
          dim {
            size: 256
          }
        }
      }
    }
  }
}
node {
  name: "Train/Model/lstm/multi_rnn_cell/cell_0/basic_lstm_cell/Tanh"
  op: "Tanh"
  input: "Train/Model/lstm/multi_rnn_cell/cell_0/basic_lstm_cell/split:1"
  attr {
    key: "T"
    value {
      type: DT_FLOAT
    }
  }
  attr {
    key: "_output_shapes"
    value {
      list {
        shape {
          dim {
            size: 128
          }
          dim {
            size: 256
          }
        }
      }
    }
  }
}
node {
  name: "Train/Model/lstm/multi_rnn_cell/cell_0/basic_lstm_cell/mul_1"
  op: "Mul"
  input: "Train/Model/lstm/multi_rnn_cell/cell_0/basic_lstm_cell/Sigmoid_1"
  input: "Train/Model/lstm/multi_rnn_cell/cell_0/basic_lstm_cell/Tanh"
  attr {
    key: "T"
    value {
      type: DT_FLOAT
    }
  }
  attr {
    key: "_output_shapes"
    value {
      list {
        shape {
          dim {
            size: 128
          }
          dim {
            size: 256
          }
        }
      }
    }
  }
}
node {
  name: "Train/Model/lstm/multi_rnn_cell/cell_0/basic_lstm_cell/add_1"
  op: "Add"
  input: "Train/Model/lstm/multi_rnn_cell/cell_0/basic_lstm_cell/mul"
  input: "Train/Model/lstm/multi_rnn_cell/cell_0/basic_lstm_cell/mul_1"
  attr {
    key: "T"
    value {
      type: DT_FLOAT
    }
  }
  attr {
    key: "_output_shapes"
    value {
      list {
        shape {
          dim {
            size: 128
          }
          dim {
            size: 256
          }
        }
      }
    }
  }
}
node {
  name: "Train/Model/lstm/multi_rnn_cell/cell_0/basic_lstm_cell/Tanh_1"
  op: "Tanh"
  input: "Train/Model/lstm/multi_rnn_cell/cell_0/basic_lstm_cell/add_1"
  attr {
    key: "T"
    value {
      type: DT_FLOAT
    }
  }
  attr {
    key: "_output_shapes"
    value {
      list {
        shape {
          dim {
            size: 128
          }
          dim {
            size: 256
          }
        }
      }
    }
  }
}
node {
  name: "Train/Model/lstm/multi_rnn_cell/cell_0/basic_lstm_cell/Sigmoid_2"
  op: "Sigmoid"
  input: "Train/Model/lstm/multi_rnn_cell/cell_0/basic_lstm_cell/split:3"
  attr {
    key: "T"
    value {
      type: DT_FLOAT
    }
  }
  attr {
    key: "_output_shapes"
    value {
      list {
        shape {
          dim {
            size: 128
          }
          dim {
            size: 256
          }
        }
      }
    }
  }
}
node {
  name: "Train/Model/lstm/multi_rnn_cell/cell_0/basic_lstm_cell/mul_2"
  op: "Mul"
  input: "Train/Model/lstm/multi_rnn_cell/cell_0/basic_lstm_cell/Tanh_1"
  input: "Train/Model/lstm/multi_rnn_cell/cell_0/basic_lstm_cell/Sigmoid_2"
  attr {
    key: "T"
    value {
      type: DT_FLOAT
    }
  }
  attr {
    key: "_output_shapes"
    value {
      list {
        shape {
          dim {
            size: 128
          }
          dim {
            size: 256
          }
        }
      }
    }
  }
}
node {
  name: "Model/lstm/multi_rnn_cell/cell_1/basic_lstm_cell/weights/Initializer/random_uniform/shape"
  op: "Const"
  attr {
    key: "_class"
    value {
      list {
        s: "loc:@Model/lstm/multi_rnn_cell/cell_1/basic_lstm_cell/weights"
      }
    }
  }
  attr {
    key: "_output_shapes"
    value {
      list {
        shape {
          dim {
            size: 2
          }
        }
      }
    }
  }
  attr {
    key: "dtype"
    value {
      type: DT_INT32
    }
  }
  attr {
    key: "value"
    value {
      tensor {
        dtype: DT_INT32
        tensor_shape {
          dim {
            size: 2
          }
        }
        tensor_content: "\000\002\000\000\000\004\000\000"
      }
    }
  }
}
node {
  name: "Model/lstm/multi_rnn_cell/cell_1/basic_lstm_cell/weights/Initializer/random_uniform/min"
  op: "Const"
  attr {
    key: "_class"
    value {
      list {
        s: "loc:@Model/lstm/multi_rnn_cell/cell_1/basic_lstm_cell/weights"
      }
    }
  }
  attr {
    key: "_output_shapes"
    value {
      list {
        shape {
        }
      }
    }
  }
  attr {
    key: "dtype"
    value {
      type: DT_FLOAT
    }
  }
  attr {
    key: "value"
    value {
      tensor {
        dtype: DT_FLOAT
        tensor_shape {
        }
        float_val: -0.10000000149
      }
    }
  }
}
node {
  name: "Model/lstm/multi_rnn_cell/cell_1/basic_lstm_cell/weights/Initializer/random_uniform/max"
  op: "Const"
  attr {
    key: "_class"
    value {
      list {
        s: "loc:@Model/lstm/multi_rnn_cell/cell_1/basic_lstm_cell/weights"
      }
    }
  }
  attr {
    key: "_output_shapes"
    value {
      list {
        shape {
        }
      }
    }
  }
  attr {
    key: "dtype"
    value {
      type: DT_FLOAT
    }
  }
  attr {
    key: "value"
    value {
      tensor {
        dtype: DT_FLOAT
        tensor_shape {
        }
        float_val: 0.10000000149
      }
    }
  }
}
node {
  name: "Model/lstm/multi_rnn_cell/cell_1/basic_lstm_cell/weights/Initializer/random_uniform/RandomUniform"
  op: "RandomUniform"
  input: "Model/lstm/multi_rnn_cell/cell_1/basic_lstm_cell/weights/Initializer/random_uniform/shape"
  attr {
    key: "T"
    value {
      type: DT_INT32
    }
  }
  attr {
    key: "_class"
    value {
      list {
        s: "loc:@Model/lstm/multi_rnn_cell/cell_1/basic_lstm_cell/weights"
      }
    }
  }
  attr {
    key: "_output_shapes"
    value {
      list {
        shape {
          dim {
            size: 512
          }
          dim {
            size: 1024
          }
        }
      }
    }
  }
  attr {
    key: "dtype"
    value {
      type: DT_FLOAT
    }
  }
  attr {
    key: "seed"
    value {
      i: 87654321
    }
  }
  attr {
    key: "seed2"
    value {
      i: 1234
    }
  }
}
node {
  name: "Model/lstm/multi_rnn_cell/cell_1/basic_lstm_cell/weights/Initializer/random_uniform/sub"
  op: "Sub"
  input: "Model/lstm/multi_rnn_cell/cell_1/basic_lstm_cell/weights/Initializer/random_uniform/max"
  input: "Model/lstm/multi_rnn_cell/cell_1/basic_lstm_cell/weights/Initializer/random_uniform/min"
  attr {
    key: "T"
    value {
      type: DT_FLOAT
    }
  }
  attr {
    key: "_class"
    value {
      list {
        s: "loc:@Model/lstm/multi_rnn_cell/cell_1/basic_lstm_cell/weights"
      }
    }
  }
  attr {
    key: "_output_shapes"
    value {
      list {
        shape {
        }
      }
    }
  }
}
node {
  name: "Model/lstm/multi_rnn_cell/cell_1/basic_lstm_cell/weights/Initializer/random_uniform/mul"
  op: "Mul"
  input: "Model/lstm/multi_rnn_cell/cell_1/basic_lstm_cell/weights/Initializer/random_uniform/RandomUniform"
  input: "Model/lstm/multi_rnn_cell/cell_1/basic_lstm_cell/weights/Initializer/random_uniform/sub"
  attr {
    key: "T"
    value {
      type: DT_FLOAT
    }
  }
  attr {
    key: "_class"
    value {
      list {
        s: "loc:@Model/lstm/multi_rnn_cell/cell_1/basic_lstm_cell/weights"
      }
    }
  }
  attr {
    key: "_output_shapes"
    value {
      list {
        shape {
          dim {
            size: 512
          }
          dim {
            size: 1024
          }
        }
      }
    }
  }
}
node {
  name: "Model/lstm/multi_rnn_cell/cell_1/basic_lstm_cell/weights/Initializer/random_uniform"
  op: "Add"
  input: "Model/lstm/multi_rnn_cell/cell_1/basic_lstm_cell/weights/Initializer/random_uniform/mul"
  input: "Model/lstm/multi_rnn_cell/cell_1/basic_lstm_cell/weights/Initializer/random_uniform/min"
  attr {
    key: "T"
    value {
      type: DT_FLOAT
    }
  }
  attr {
    key: "_class"
    value {
      list {
        s: "loc:@Model/lstm/multi_rnn_cell/cell_1/basic_lstm_cell/weights"
      }
    }
  }
  attr {
    key: "_output_shapes"
    value {
      list {
        shape {
          dim {
            size: 512
          }
          dim {
            size: 1024
          }
        }
      }
    }
  }
}
node {
  name: "Model/lstm/multi_rnn_cell/cell_1/basic_lstm_cell/weights"
  op: "VariableV2"
  attr {
    key: "_class"
    value {
      list {
        s: "loc:@Model/lstm/multi_rnn_cell/cell_1/basic_lstm_cell/weights"
      }
    }
  }
  attr {
    key: "_output_shapes"
    value {
      list {
        shape {
          dim {
            size: 512
          }
          dim {
            size: 1024
          }
        }
      }
    }
  }
  attr {
    key: "container"
    value {
      s: ""
    }
  }
  attr {
    key: "dtype"
    value {
      type: DT_FLOAT
    }
  }
  attr {
    key: "shape"
    value {
      shape {
        dim {
          size: 512
        }
        dim {
          size: 1024
        }
      }
    }
  }
  attr {
    key: "shared_name"
    value {
      s: ""
    }
  }
}
node {
  name: "Model/lstm/multi_rnn_cell/cell_1/basic_lstm_cell/weights/Assign"
  op: "Assign"
  input: "Model/lstm/multi_rnn_cell/cell_1/basic_lstm_cell/weights"
  input: "Model/lstm/multi_rnn_cell/cell_1/basic_lstm_cell/weights/Initializer/random_uniform"
  attr {
    key: "T"
    value {
      type: DT_FLOAT
    }
  }
  attr {
    key: "_class"
    value {
      list {
        s: "loc:@Model/lstm/multi_rnn_cell/cell_1/basic_lstm_cell/weights"
      }
    }
  }
  attr {
    key: "_output_shapes"
    value {
      list {
        shape {
          dim {
            size: 512
          }
          dim {
            size: 1024
          }
        }
      }
    }
  }
  attr {
    key: "use_locking"
    value {
      b: true
    }
  }
  attr {
    key: "validate_shape"
    value {
      b: true
    }
  }
}
node {
  name: "Model/lstm/multi_rnn_cell/cell_1/basic_lstm_cell/weights/read"
  op: "Identity"
  input: "Model/lstm/multi_rnn_cell/cell_1/basic_lstm_cell/weights"
  attr {
    key: "T"
    value {
      type: DT_FLOAT
    }
  }
  attr {
    key: "_class"
    value {
      list {
        s: "loc:@Model/lstm/multi_rnn_cell/cell_1/basic_lstm_cell/weights"
      }
    }
  }
  attr {
    key: "_output_shapes"
    value {
      list {
        shape {
          dim {
            size: 512
          }
          dim {
            size: 1024
          }
        }
      }
    }
  }
}
node {
  name: "Train/Model/lstm/multi_rnn_cell/cell_1/basic_lstm_cell/basic_lstm_cell/concat/axis"
  op: "Const"
  attr {
    key: "_output_shapes"
    value {
      list {
        shape {
        }
      }
    }
  }
  attr {
    key: "dtype"
    value {
      type: DT_INT32
    }
  }
  attr {
    key: "value"
    value {
      tensor {
        dtype: DT_INT32
        tensor_shape {
        }
        int_val: 1
      }
    }
  }
}
node {
  name: "Train/Model/lstm/multi_rnn_cell/cell_1/basic_lstm_cell/basic_lstm_cell/concat"
  op: "ConcatV2"
  input: "Train/Model/lstm/multi_rnn_cell/cell_0/basic_lstm_cell/mul_2"
  input: "Train/Model/lstm/zeros_3"
  input: "Train/Model/lstm/multi_rnn_cell/cell_1/basic_lstm_cell/basic_lstm_cell/concat/axis"
  attr {
    key: "N"
    value {
      i: 2
    }
  }
  attr {
    key: "T"
    value {
      type: DT_FLOAT
    }
  }
  attr {
    key: "Tidx"
    value {
      type: DT_INT32
    }
  }
  attr {
    key: "_output_shapes"
    value {
      list {
        shape {
          dim {
            size: 128
          }
          dim {
            size: 512
          }
        }
      }
    }
  }
}
node {
  name: "Train/Model/lstm/multi_rnn_cell/cell_1/basic_lstm_cell/basic_lstm_cell/MatMul"
  op: "MatMul"
  input: "Train/Model/lstm/multi_rnn_cell/cell_1/basic_lstm_cell/basic_lstm_cell/concat"
  input: "Model/lstm/multi_rnn_cell/cell_1/basic_lstm_cell/weights/read"
  attr {
    key: "T"
    value {
      type: DT_FLOAT
    }
  }
  attr {
    key: "_output_shapes"
    value {
      list {
        shape {
          dim {
            size: 128
          }
          dim {
            size: 1024
          }
        }
      }
    }
  }
  attr {
    key: "transpose_a"
    value {
      b: false
    }
  }
  attr {
    key: "transpose_b"
    value {
      b: false
    }
  }
}
node {
  name: "Model/lstm/multi_rnn_cell/cell_1/basic_lstm_cell/biases/Initializer/Const"
  op: "Const"
  attr {
    key: "_class"
    value {
      list {
        s: "loc:@Model/lstm/multi_rnn_cell/cell_1/basic_lstm_cell/biases"
      }
    }
  }
  attr {
    key: "_output_shapes"
    value {
      list {
        shape {
          dim {
            size: 1024
          }
        }
      }
    }
  }
  attr {
    key: "dtype"
    value {
      type: DT_FLOAT
    }
  }
  attr {
    key: "value"
    value {
      tensor {
        dtype: DT_FLOAT
        tensor_shape {
          dim {
            size: 1024
          }
        }
        float_val: 0.0
      }
    }
  }
}
node {
  name: "Model/lstm/multi_rnn_cell/cell_1/basic_lstm_cell/biases"
  op: "VariableV2"
  attr {
    key: "_class"
    value {
      list {
        s: "loc:@Model/lstm/multi_rnn_cell/cell_1/basic_lstm_cell/biases"
      }
    }
  }
  attr {
    key: "_output_shapes"
    value {
      list {
        shape {
          dim {
            size: 1024
          }
        }
      }
    }
  }
  attr {
    key: "container"
    value {
      s: ""
    }
  }
  attr {
    key: "dtype"
    value {
      type: DT_FLOAT
    }
  }
  attr {
    key: "shape"
    value {
      shape {
        dim {
          size: 1024
        }
      }
    }
  }
  attr {
    key: "shared_name"
    value {
      s: ""
    }
  }
}
node {
  name: "Model/lstm/multi_rnn_cell/cell_1/basic_lstm_cell/biases/Assign"
  op: "Assign"
  input: "Model/lstm/multi_rnn_cell/cell_1/basic_lstm_cell/biases"
  input: "Model/lstm/multi_rnn_cell/cell_1/basic_lstm_cell/biases/Initializer/Const"
  attr {
    key: "T"
    value {
      type: DT_FLOAT
    }
  }
  attr {
    key: "_class"
    value {
      list {
        s: "loc:@Model/lstm/multi_rnn_cell/cell_1/basic_lstm_cell/biases"
      }
    }
  }
  attr {
    key: "_output_shapes"
    value {
      list {
        shape {
          dim {
            size: 1024
          }
        }
      }
    }
  }
  attr {
    key: "use_locking"
    value {
      b: true
    }
  }
  attr {
    key: "validate_shape"
    value {
      b: true
    }
  }
}
node {
  name: "Model/lstm/multi_rnn_cell/cell_1/basic_lstm_cell/biases/read"
  op: "Identity"
  input: "Model/lstm/multi_rnn_cell/cell_1/basic_lstm_cell/biases"
  attr {
    key: "T"
    value {
      type: DT_FLOAT
    }
  }
  attr {
    key: "_class"
    value {
      list {
        s: "loc:@Model/lstm/multi_rnn_cell/cell_1/basic_lstm_cell/biases"
      }
    }
  }
  attr {
    key: "_output_shapes"
    value {
      list {
        shape {
          dim {
            size: 1024
          }
        }
      }
    }
  }
}
node {
  name: "Train/Model/lstm/multi_rnn_cell/cell_1/basic_lstm_cell/BiasAdd"
  op: "BiasAdd"
  input: "Train/Model/lstm/multi_rnn_cell/cell_1/basic_lstm_cell/basic_lstm_cell/MatMul"
  input: "Model/lstm/multi_rnn_cell/cell_1/basic_lstm_cell/biases/read"
  attr {
    key: "T"
    value {
      type: DT_FLOAT
    }
  }
  attr {
    key: "_output_shapes"
    value {
      list {
        shape {
          dim {
            size: 128
          }
          dim {
            size: 1024
          }
        }
      }
    }
  }
  attr {
    key: "data_format"
    value {
      s: "NHWC"
    }
  }
}
node {
  name: "Train/Model/lstm/multi_rnn_cell/cell_1/basic_lstm_cell/split/split_dim"
  op: "Const"
  attr {
    key: "_output_shapes"
    value {
      list {
        shape {
        }
      }
    }
  }
  attr {
    key: "dtype"
    value {
      type: DT_INT32
    }
  }
  attr {
    key: "value"
    value {
      tensor {
        dtype: DT_INT32
        tensor_shape {
        }
        int_val: 1
      }
    }
  }
}
node {
  name: "Train/Model/lstm/multi_rnn_cell/cell_1/basic_lstm_cell/split"
  op: "Split"
  input: "Train/Model/lstm/multi_rnn_cell/cell_1/basic_lstm_cell/split/split_dim"
  input: "Train/Model/lstm/multi_rnn_cell/cell_1/basic_lstm_cell/BiasAdd"
  attr {
    key: "T"
    value {
      type: DT_FLOAT
    }
  }
  attr {
    key: "_output_shapes"
    value {
      list {
        shape {
          dim {
            size: 128
          }
          dim {
            size: 256
          }
        }
        shape {
          dim {
            size: 128
          }
          dim {
            size: 256
          }
        }
        shape {
          dim {
            size: 128
          }
          dim {
            size: 256
          }
        }
        shape {
          dim {
            size: 128
          }
          dim {
            size: 256
          }
        }
      }
    }
  }
  attr {
    key: "num_split"
    value {
      i: 4
    }
  }
}
node {
  name: "Train/Model/lstm/multi_rnn_cell/cell_1/basic_lstm_cell/add/y"
  op: "Const"
  attr {
    key: "_output_shapes"
    value {
      list {
        shape {
        }
      }
    }
  }
  attr {
    key: "dtype"
    value {
      type: DT_FLOAT
    }
  }
  attr {
    key: "value"
    value {
      tensor {
        dtype: DT_FLOAT
        tensor_shape {
        }
        float_val: 0.0
      }
    }
  }
}
node {
  name: "Train/Model/lstm/multi_rnn_cell/cell_1/basic_lstm_cell/add"
  op: "Add"
  input: "Train/Model/lstm/multi_rnn_cell/cell_1/basic_lstm_cell/split:2"
  input: "Train/Model/lstm/multi_rnn_cell/cell_1/basic_lstm_cell/add/y"
  attr {
    key: "T"
    value {
      type: DT_FLOAT
    }
  }
  attr {
    key: "_output_shapes"
    value {
      list {
        shape {
          dim {
            size: 128
          }
          dim {
            size: 256
          }
        }
      }
    }
  }
}
node {
  name: "Train/Model/lstm/multi_rnn_cell/cell_1/basic_lstm_cell/Sigmoid"
  op: "Sigmoid"
  input: "Train/Model/lstm/multi_rnn_cell/cell_1/basic_lstm_cell/add"
  attr {
    key: "T"
    value {
      type: DT_FLOAT
    }
  }
  attr {
    key: "_output_shapes"
    value {
      list {
        shape {
          dim {
            size: 128
          }
          dim {
            size: 256
          }
        }
      }
    }
  }
}
node {
  name: "Train/Model/lstm/multi_rnn_cell/cell_1/basic_lstm_cell/mul"
  op: "Mul"
  input: "Train/Model/lstm/zeros_2"
  input: "Train/Model/lstm/multi_rnn_cell/cell_1/basic_lstm_cell/Sigmoid"
  attr {
    key: "T"
    value {
      type: DT_FLOAT
    }
  }
  attr {
    key: "_output_shapes"
    value {
      list {
        shape {
          dim {
            size: 128
          }
          dim {
            size: 256
          }
        }
      }
    }
  }
}
node {
  name: "Train/Model/lstm/multi_rnn_cell/cell_1/basic_lstm_cell/Sigmoid_1"
  op: "Sigmoid"
  input: "Train/Model/lstm/multi_rnn_cell/cell_1/basic_lstm_cell/split"
  attr {
    key: "T"
    value {
      type: DT_FLOAT
    }
  }
  attr {
    key: "_output_shapes"
    value {
      list {
        shape {
          dim {
            size: 128
          }
          dim {
            size: 256
          }
        }
      }
    }
  }
}
node {
  name: "Train/Model/lstm/multi_rnn_cell/cell_1/basic_lstm_cell/Tanh"
  op: "Tanh"
  input: "Train/Model/lstm/multi_rnn_cell/cell_1/basic_lstm_cell/split:1"
  attr {
    key: "T"
    value {
      type: DT_FLOAT
    }
  }
  attr {
    key: "_output_shapes"
    value {
      list {
        shape {
          dim {
            size: 128
          }
          dim {
            size: 256
          }
        }
      }
    }
  }
}
node {
  name: "Train/Model/lstm/multi_rnn_cell/cell_1/basic_lstm_cell/mul_1"
  op: "Mul"
  input: "Train/Model/lstm/multi_rnn_cell/cell_1/basic_lstm_cell/Sigmoid_1"
  input: "Train/Model/lstm/multi_rnn_cell/cell_1/basic_lstm_cell/Tanh"
  attr {
    key: "T"
    value {
      type: DT_FLOAT
    }
  }
  attr {
    key: "_output_shapes"
    value {
      list {
        shape {
          dim {
            size: 128
          }
          dim {
            size: 256
          }
        }
      }
    }
  }
}
node {
  name: "Train/Model/lstm/multi_rnn_cell/cell_1/basic_lstm_cell/add_1"
  op: "Add"
  input: "Train/Model/lstm/multi_rnn_cell/cell_1/basic_lstm_cell/mul"
  input: "Train/Model/lstm/multi_rnn_cell/cell_1/basic_lstm_cell/mul_1"
  attr {
    key: "T"
    value {
      type: DT_FLOAT
    }
  }
  attr {
    key: "_output_shapes"
    value {
      list {
        shape {
          dim {
            size: 128
          }
          dim {
            size: 256
          }
        }
      }
    }
  }
}
node {
  name: "Train/Model/lstm/multi_rnn_cell/cell_1/basic_lstm_cell/Tanh_1"
  op: "Tanh"
  input: "Train/Model/lstm/multi_rnn_cell/cell_1/basic_lstm_cell/add_1"
  attr {
    key: "T"
    value {
      type: DT_FLOAT
    }
  }
  attr {
    key: "_output_shapes"
    value {
      list {
        shape {
          dim {
            size: 128
          }
          dim {
            size: 256
          }
        }
      }
    }
  }
}
node {
  name: "Train/Model/lstm/multi_rnn_cell/cell_1/basic_lstm_cell/Sigmoid_2"
  op: "Sigmoid"
  input: "Train/Model/lstm/multi_rnn_cell/cell_1/basic_lstm_cell/split:3"
  attr {
    key: "T"
    value {
      type: DT_FLOAT
    }
  }
  attr {
    key: "_output_shapes"
    value {
      list {
        shape {
          dim {
            size: 128
          }
          dim {
            size: 256
          }
        }
      }
    }
  }
}
node {
  name: "Train/Model/lstm/multi_rnn_cell/cell_1/basic_lstm_cell/mul_2"
  op: "Mul"
  input: "Train/Model/lstm/multi_rnn_cell/cell_1/basic_lstm_cell/Tanh_1"
  input: "Train/Model/lstm/multi_rnn_cell/cell_1/basic_lstm_cell/Sigmoid_2"
  attr {
    key: "T"
    value {
      type: DT_FLOAT
    }
  }
  attr {
    key: "_output_shapes"
    value {
      list {
        shape {
          dim {
            size: 128
          }
          dim {
            size: 256
          }
        }
      }
    }
  }
}
node {
  name: "Train/Model/lstm/strided_slice_1/stack"
  op: "Const"
  attr {
    key: "_output_shapes"
    value {
      list {
        shape {
          dim {
            size: 3
          }
        }
      }
    }
  }
  attr {
    key: "dtype"
    value {
      type: DT_INT32
    }
  }
  attr {
    key: "value"
    value {
      tensor {
        dtype: DT_INT32
        tensor_shape {
          dim {
            size: 3
          }
        }
        tensor_content: "\000\000\000\000\001\000\000\000\000\000\000\000"
      }
    }
  }
}
node {
  name: "Train/Model/lstm/strided_slice_1/stack_1"
  op: "Const"
  attr {
    key: "_output_shapes"
    value {
      list {
        shape {
          dim {
            size: 3
          }
        }
      }
    }
  }
  attr {
    key: "dtype"
    value {
      type: DT_INT32
    }
  }
  attr {
    key: "value"
    value {
      tensor {
        dtype: DT_INT32
        tensor_shape {
          dim {
            size: 3
          }
        }
        tensor_content: "\000\000\000\000\002\000\000\000\000\000\000\000"
      }
    }
  }
}
node {
  name: "Train/Model/lstm/strided_slice_1/stack_2"
  op: "Const"
  attr {
    key: "_output_shapes"
    value {
      list {
        shape {
          dim {
            size: 3
          }
        }
      }
    }
  }
  attr {
    key: "dtype"
    value {
      type: DT_INT32
    }
  }
  attr {
    key: "value"
    value {
      tensor {
        dtype: DT_INT32
        tensor_shape {
          dim {
            size: 3
          }
        }
        tensor_content: "\001\000\000\000\001\000\000\000\001\000\000\000"
      }
    }
  }
}
node {
  name: "Train/Model/lstm/strided_slice_1"
  op: "StridedSlice"
  input: "Train/Model/embedding_lookup"
  input: "Train/Model/lstm/strided_slice_1/stack"
  input: "Train/Model/lstm/strided_slice_1/stack_1"
  input: "Train/Model/lstm/strided_slice_1/stack_2"
  attr {
    key: "Index"
    value {
      type: DT_INT32
    }
  }
  attr {
    key: "T"
    value {
      type: DT_FLOAT
    }
  }
  attr {
    key: "_output_shapes"
    value {
      list {
        shape {
          dim {
            size: -1
          }
          dim {
            size: 256
          }
        }
      }
    }
  }
  attr {
    key: "begin_mask"
    value {
      i: 5
    }
  }
  attr {
    key: "ellipsis_mask"
    value {
      i: 0
    }
  }
  attr {
    key: "end_mask"
    value {
      i: 5
    }
  }
  attr {
    key: "new_axis_mask"
    value {
      i: 0
    }
  }
  attr {
    key: "shrink_axis_mask"
    value {
      i: 2
    }
  }
}
node {
  name: "Train/Model/lstm/multi_rnn_cell_1/cell_0/basic_lstm_cell/basic_lstm_cell/concat/axis"
  op: "Const"
  attr {
    key: "_output_shapes"
    value {
      list {
        shape {
        }
      }
    }
  }
  attr {
    key: "dtype"
    value {
      type: DT_INT32
    }
  }
  attr {
    key: "value"
    value {
      tensor {
        dtype: DT_INT32
        tensor_shape {
        }
        int_val: 1
      }
    }
  }
}
node {
  name: "Train/Model/lstm/multi_rnn_cell_1/cell_0/basic_lstm_cell/basic_lstm_cell/concat"
  op: "ConcatV2"
  input: "Train/Model/lstm/strided_slice_1"
  input: "Train/Model/lstm/multi_rnn_cell/cell_0/basic_lstm_cell/mul_2"
  input: "Train/Model/lstm/multi_rnn_cell_1/cell_0/basic_lstm_cell/basic_lstm_cell/concat/axis"
  attr {
    key: "N"
    value {
      i: 2
    }
  }
  attr {
    key: "T"
    value {
      type: DT_FLOAT
    }
  }
  attr {
    key: "Tidx"
    value {
      type: DT_INT32
    }
  }
  attr {
    key: "_output_shapes"
    value {
      list {
        shape {
          dim {
            size: 128
          }
          dim {
            size: 512
          }
        }
      }
    }
  }
}
node {
  name: "Train/Model/lstm/multi_rnn_cell_1/cell_0/basic_lstm_cell/basic_lstm_cell/MatMul"
  op: "MatMul"
  input: "Train/Model/lstm/multi_rnn_cell_1/cell_0/basic_lstm_cell/basic_lstm_cell/concat"
  input: "Model/lstm/multi_rnn_cell/cell_0/basic_lstm_cell/weights/read"
  attr {
    key: "T"
    value {
      type: DT_FLOAT
    }
  }
  attr {
    key: "_output_shapes"
    value {
      list {
        shape {
          dim {
            size: 128
          }
          dim {
            size: 1024
          }
        }
      }
    }
  }
  attr {
    key: "transpose_a"
    value {
      b: false
    }
  }
  attr {
    key: "transpose_b"
    value {
      b: false
    }
  }
}
node {
  name: "Train/Model/lstm/multi_rnn_cell_1/cell_0/basic_lstm_cell/BiasAdd"
  op: "BiasAdd"
  input: "Train/Model/lstm/multi_rnn_cell_1/cell_0/basic_lstm_cell/basic_lstm_cell/MatMul"
  input: "Model/lstm/multi_rnn_cell/cell_0/basic_lstm_cell/biases/read"
  attr {
    key: "T"
    value {
      type: DT_FLOAT
    }
  }
  attr {
    key: "_output_shapes"
    value {
      list {
        shape {
          dim {
            size: 128
          }
          dim {
            size: 1024
          }
        }
      }
    }
  }
  attr {
    key: "data_format"
    value {
      s: "NHWC"
    }
  }
}
node {
  name: "Train/Model/lstm/multi_rnn_cell_1/cell_0/basic_lstm_cell/split/split_dim"
  op: "Const"
  attr {
    key: "_output_shapes"
    value {
      list {
        shape {
        }
      }
    }
  }
  attr {
    key: "dtype"
    value {
      type: DT_INT32
    }
  }
  attr {
    key: "value"
    value {
      tensor {
        dtype: DT_INT32
        tensor_shape {
        }
        int_val: 1
      }
    }
  }
}
node {
  name: "Train/Model/lstm/multi_rnn_cell_1/cell_0/basic_lstm_cell/split"
  op: "Split"
  input: "Train/Model/lstm/multi_rnn_cell_1/cell_0/basic_lstm_cell/split/split_dim"
  input: "Train/Model/lstm/multi_rnn_cell_1/cell_0/basic_lstm_cell/BiasAdd"
  attr {
    key: "T"
    value {
      type: DT_FLOAT
    }
  }
  attr {
    key: "_output_shapes"
    value {
      list {
        shape {
          dim {
            size: 128
          }
          dim {
            size: 256
          }
        }
        shape {
          dim {
            size: 128
          }
          dim {
            size: 256
          }
        }
        shape {
          dim {
            size: 128
          }
          dim {
            size: 256
          }
        }
        shape {
          dim {
            size: 128
          }
          dim {
            size: 256
          }
        }
      }
    }
  }
  attr {
    key: "num_split"
    value {
      i: 4
    }
  }
}
node {
  name: "Train/Model/lstm/multi_rnn_cell_1/cell_0/basic_lstm_cell/add/y"
  op: "Const"
  attr {
    key: "_output_shapes"
    value {
      list {
        shape {
        }
      }
    }
  }
  attr {
    key: "dtype"
    value {
      type: DT_FLOAT
    }
  }
  attr {
    key: "value"
    value {
      tensor {
        dtype: DT_FLOAT
        tensor_shape {
        }
        float_val: 0.0
      }
    }
  }
}
node {
  name: "Train/Model/lstm/multi_rnn_cell_1/cell_0/basic_lstm_cell/add"
  op: "Add"
  input: "Train/Model/lstm/multi_rnn_cell_1/cell_0/basic_lstm_cell/split:2"
  input: "Train/Model/lstm/multi_rnn_cell_1/cell_0/basic_lstm_cell/add/y"
  attr {
    key: "T"
    value {
      type: DT_FLOAT
    }
  }
  attr {
    key: "_output_shapes"
    value {
      list {
        shape {
          dim {
            size: 128
          }
          dim {
            size: 256
          }
        }
      }
    }
  }
}
node {
  name: "Train/Model/lstm/multi_rnn_cell_1/cell_0/basic_lstm_cell/Sigmoid"
  op: "Sigmoid"
  input: "Train/Model/lstm/multi_rnn_cell_1/cell_0/basic_lstm_cell/add"
  attr {
    key: "T"
    value {
      type: DT_FLOAT
    }
  }
  attr {
    key: "_output_shapes"
    value {
      list {
        shape {
          dim {
            size: 128
          }
          dim {
            size: 256
          }
        }
      }
    }
  }
}
node {
  name: "Train/Model/lstm/multi_rnn_cell_1/cell_0/basic_lstm_cell/mul"
  op: "Mul"
  input: "Train/Model/lstm/multi_rnn_cell/cell_0/basic_lstm_cell/add_1"
  input: "Train/Model/lstm/multi_rnn_cell_1/cell_0/basic_lstm_cell/Sigmoid"
  attr {
    key: "T"
    value {
      type: DT_FLOAT
    }
  }
  attr {
    key: "_output_shapes"
    value {
      list {
        shape {
          dim {
            size: 128
          }
          dim {
            size: 256
          }
        }
      }
    }
  }
}
node {
  name: "Train/Model/lstm/multi_rnn_cell_1/cell_0/basic_lstm_cell/Sigmoid_1"
  op: "Sigmoid"
  input: "Train/Model/lstm/multi_rnn_cell_1/cell_0/basic_lstm_cell/split"
  attr {
    key: "T"
    value {
      type: DT_FLOAT
    }
  }
  attr {
    key: "_output_shapes"
    value {
      list {
        shape {
          dim {
            size: 128
          }
          dim {
            size: 256
          }
        }
      }
    }
  }
}
node {
  name: "Train/Model/lstm/multi_rnn_cell_1/cell_0/basic_lstm_cell/Tanh"
  op: "Tanh"
  input: "Train/Model/lstm/multi_rnn_cell_1/cell_0/basic_lstm_cell/split:1"
  attr {
    key: "T"
    value {
      type: DT_FLOAT
    }
  }
  attr {
    key: "_output_shapes"
    value {
      list {
        shape {
          dim {
            size: 128
          }
          dim {
            size: 256
          }
        }
      }
    }
  }
}
node {
  name: "Train/Model/lstm/multi_rnn_cell_1/cell_0/basic_lstm_cell/mul_1"
  op: "Mul"
  input: "Train/Model/lstm/multi_rnn_cell_1/cell_0/basic_lstm_cell/Sigmoid_1"
  input: "Train/Model/lstm/multi_rnn_cell_1/cell_0/basic_lstm_cell/Tanh"
  attr {
    key: "T"
    value {
      type: DT_FLOAT
    }
  }
  attr {
    key: "_output_shapes"
    value {
      list {
        shape {
          dim {
            size: 128
          }
          dim {
            size: 256
          }
        }
      }
    }
  }
}
node {
  name: "Train/Model/lstm/multi_rnn_cell_1/cell_0/basic_lstm_cell/add_1"
  op: "Add"
  input: "Train/Model/lstm/multi_rnn_cell_1/cell_0/basic_lstm_cell/mul"
  input: "Train/Model/lstm/multi_rnn_cell_1/cell_0/basic_lstm_cell/mul_1"
  attr {
    key: "T"
    value {
      type: DT_FLOAT
    }
  }
  attr {
    key: "_output_shapes"
    value {
      list {
        shape {
          dim {
            size: 128
          }
          dim {
            size: 256
          }
        }
      }
    }
  }
}
node {
  name: "Train/Model/lstm/multi_rnn_cell_1/cell_0/basic_lstm_cell/Tanh_1"
  op: "Tanh"
  input: "Train/Model/lstm/multi_rnn_cell_1/cell_0/basic_lstm_cell/add_1"
  attr {
    key: "T"
    value {
      type: DT_FLOAT
    }
  }
  attr {
    key: "_output_shapes"
    value {
      list {
        shape {
          dim {
            size: 128
          }
          dim {
            size: 256
          }
        }
      }
    }
  }
}
node {
  name: "Train/Model/lstm/multi_rnn_cell_1/cell_0/basic_lstm_cell/Sigmoid_2"
  op: "Sigmoid"
  input: "Train/Model/lstm/multi_rnn_cell_1/cell_0/basic_lstm_cell/split:3"
  attr {
    key: "T"
    value {
      type: DT_FLOAT
    }
  }
  attr {
    key: "_output_shapes"
    value {
      list {
        shape {
          dim {
            size: 128
          }
          dim {
            size: 256
          }
        }
      }
    }
  }
}
node {
  name: "Train/Model/lstm/multi_rnn_cell_1/cell_0/basic_lstm_cell/mul_2"
  op: "Mul"
  input: "Train/Model/lstm/multi_rnn_cell_1/cell_0/basic_lstm_cell/Tanh_1"
  input: "Train/Model/lstm/multi_rnn_cell_1/cell_0/basic_lstm_cell/Sigmoid_2"
  attr {
    key: "T"
    value {
      type: DT_FLOAT
    }
  }
  attr {
    key: "_output_shapes"
    value {
      list {
        shape {
          dim {
            size: 128
          }
          dim {
            size: 256
          }
        }
      }
    }
  }
}
node {
  name: "Train/Model/lstm/multi_rnn_cell_1/cell_1/basic_lstm_cell/basic_lstm_cell/concat/axis"
  op: "Const"
  attr {
    key: "_output_shapes"
    value {
      list {
        shape {
        }
      }
    }
  }
  attr {
    key: "dtype"
    value {
      type: DT_INT32
    }
  }
  attr {
    key: "value"
    value {
      tensor {
        dtype: DT_INT32
        tensor_shape {
        }
        int_val: 1
      }
    }
  }
}
node {
  name: "Train/Model/lstm/multi_rnn_cell_1/cell_1/basic_lstm_cell/basic_lstm_cell/concat"
  op: "ConcatV2"
  input: "Train/Model/lstm/multi_rnn_cell_1/cell_0/basic_lstm_cell/mul_2"
  input: "Train/Model/lstm/multi_rnn_cell/cell_1/basic_lstm_cell/mul_2"
  input: "Train/Model/lstm/multi_rnn_cell_1/cell_1/basic_lstm_cell/basic_lstm_cell/concat/axis"
  attr {
    key: "N"
    value {
      i: 2
    }
  }
  attr {
    key: "T"
    value {
      type: DT_FLOAT
    }
  }
  attr {
    key: "Tidx"
    value {
      type: DT_INT32
    }
  }
  attr {
    key: "_output_shapes"
    value {
      list {
        shape {
          dim {
            size: 128
          }
          dim {
            size: 512
          }
        }
      }
    }
  }
}
node {
  name: "Train/Model/lstm/multi_rnn_cell_1/cell_1/basic_lstm_cell/basic_lstm_cell/MatMul"
  op: "MatMul"
  input: "Train/Model/lstm/multi_rnn_cell_1/cell_1/basic_lstm_cell/basic_lstm_cell/concat"
  input: "Model/lstm/multi_rnn_cell/cell_1/basic_lstm_cell/weights/read"
  attr {
    key: "T"
    value {
      type: DT_FLOAT
    }
  }
  attr {
    key: "_output_shapes"
    value {
      list {
        shape {
          dim {
            size: 128
          }
          dim {
            size: 1024
          }
        }
      }
    }
  }
  attr {
    key: "transpose_a"
    value {
      b: false
    }
  }
  attr {
    key: "transpose_b"
    value {
      b: false
    }
  }
}
node {
  name: "Train/Model/lstm/multi_rnn_cell_1/cell_1/basic_lstm_cell/BiasAdd"
  op: "BiasAdd"
  input: "Train/Model/lstm/multi_rnn_cell_1/cell_1/basic_lstm_cell/basic_lstm_cell/MatMul"
  input: "Model/lstm/multi_rnn_cell/cell_1/basic_lstm_cell/biases/read"
  attr {
    key: "T"
    value {
      type: DT_FLOAT
    }
  }
  attr {
    key: "_output_shapes"
    value {
      list {
        shape {
          dim {
            size: 128
          }
          dim {
            size: 1024
          }
        }
      }
    }
  }
  attr {
    key: "data_format"
    value {
      s: "NHWC"
    }
  }
}
node {
  name: "Train/Model/lstm/multi_rnn_cell_1/cell_1/basic_lstm_cell/split/split_dim"
  op: "Const"
  attr {
    key: "_output_shapes"
    value {
      list {
        shape {
        }
      }
    }
  }
  attr {
    key: "dtype"
    value {
      type: DT_INT32
    }
  }
  attr {
    key: "value"
    value {
      tensor {
        dtype: DT_INT32
        tensor_shape {
        }
        int_val: 1
      }
    }
  }
}
node {
  name: "Train/Model/lstm/multi_rnn_cell_1/cell_1/basic_lstm_cell/split"
  op: "Split"
  input: "Train/Model/lstm/multi_rnn_cell_1/cell_1/basic_lstm_cell/split/split_dim"
  input: "Train/Model/lstm/multi_rnn_cell_1/cell_1/basic_lstm_cell/BiasAdd"
  attr {
    key: "T"
    value {
      type: DT_FLOAT
    }
  }
  attr {
    key: "_output_shapes"
    value {
      list {
        shape {
          dim {
            size: 128
          }
          dim {
            size: 256
          }
        }
        shape {
          dim {
            size: 128
          }
          dim {
            size: 256
          }
        }
        shape {
          dim {
            size: 128
          }
          dim {
            size: 256
          }
        }
        shape {
          dim {
            size: 128
          }
          dim {
            size: 256
          }
        }
      }
    }
  }
  attr {
    key: "num_split"
    value {
      i: 4
    }
  }
}
node {
  name: "Train/Model/lstm/multi_rnn_cell_1/cell_1/basic_lstm_cell/add/y"
  op: "Const"
  attr {
    key: "_output_shapes"
    value {
      list {
        shape {
        }
      }
    }
  }
  attr {
    key: "dtype"
    value {
      type: DT_FLOAT
    }
  }
  attr {
    key: "value"
    value {
      tensor {
        dtype: DT_FLOAT
        tensor_shape {
        }
        float_val: 0.0
      }
    }
  }
}
node {
  name: "Train/Model/lstm/multi_rnn_cell_1/cell_1/basic_lstm_cell/add"
  op: "Add"
  input: "Train/Model/lstm/multi_rnn_cell_1/cell_1/basic_lstm_cell/split:2"
  input: "Train/Model/lstm/multi_rnn_cell_1/cell_1/basic_lstm_cell/add/y"
  attr {
    key: "T"
    value {
      type: DT_FLOAT
    }
  }
  attr {
    key: "_output_shapes"
    value {
      list {
        shape {
          dim {
            size: 128
          }
          dim {
            size: 256
          }
        }
      }
    }
  }
}
node {
  name: "Train/Model/lstm/multi_rnn_cell_1/cell_1/basic_lstm_cell/Sigmoid"
  op: "Sigmoid"
  input: "Train/Model/lstm/multi_rnn_cell_1/cell_1/basic_lstm_cell/add"
  attr {
    key: "T"
    value {
      type: DT_FLOAT
    }
  }
  attr {
    key: "_output_shapes"
    value {
      list {
        shape {
          dim {
            size: 128
          }
          dim {
            size: 256
          }
        }
      }
    }
  }
}
node {
  name: "Train/Model/lstm/multi_rnn_cell_1/cell_1/basic_lstm_cell/mul"
  op: "Mul"
  input: "Train/Model/lstm/multi_rnn_cell/cell_1/basic_lstm_cell/add_1"
  input: "Train/Model/lstm/multi_rnn_cell_1/cell_1/basic_lstm_cell/Sigmoid"
  attr {
    key: "T"
    value {
      type: DT_FLOAT
    }
  }
  attr {
    key: "_output_shapes"
    value {
      list {
        shape {
          dim {
            size: 128
          }
          dim {
            size: 256
          }
        }
      }
    }
  }
}
node {
  name: "Train/Model/lstm/multi_rnn_cell_1/cell_1/basic_lstm_cell/Sigmoid_1"
  op: "Sigmoid"
  input: "Train/Model/lstm/multi_rnn_cell_1/cell_1/basic_lstm_cell/split"
  attr {
    key: "T"
    value {
      type: DT_FLOAT
    }
  }
  attr {
    key: "_output_shapes"
    value {
      list {
        shape {
          dim {
            size: 128
          }
          dim {
            size: 256
          }
        }
      }
    }
  }
}
node {
  name: "Train/Model/lstm/multi_rnn_cell_1/cell_1/basic_lstm_cell/Tanh"
  op: "Tanh"
  input: "Train/Model/lstm/multi_rnn_cell_1/cell_1/basic_lstm_cell/split:1"
  attr {
    key: "T"
    value {
      type: DT_FLOAT
    }
  }
  attr {
    key: "_output_shapes"
    value {
      list {
        shape {
          dim {
            size: 128
          }
          dim {
            size: 256
          }
        }
      }
    }
  }
}
node {
  name: "Train/Model/lstm/multi_rnn_cell_1/cell_1/basic_lstm_cell/mul_1"
  op: "Mul"
  input: "Train/Model/lstm/multi_rnn_cell_1/cell_1/basic_lstm_cell/Sigmoid_1"
  input: "Train/Model/lstm/multi_rnn_cell_1/cell_1/basic_lstm_cell/Tanh"
  attr {
    key: "T"
    value {
      type: DT_FLOAT
    }
  }
  attr {
    key: "_output_shapes"
    value {
      list {
        shape {
          dim {
            size: 128
          }
          dim {
            size: 256
          }
        }
      }
    }
  }
}
node {
  name: "Train/Model/lstm/multi_rnn_cell_1/cell_1/basic_lstm_cell/add_1"
  op: "Add"
  input: "Train/Model/lstm/multi_rnn_cell_1/cell_1/basic_lstm_cell/mul"
  input: "Train/Model/lstm/multi_rnn_cell_1/cell_1/basic_lstm_cell/mul_1"
  attr {
    key: "T"
    value {
      type: DT_FLOAT
    }
  }
  attr {
    key: "_output_shapes"
    value {
      list {
        shape {
          dim {
            size: 128
          }
          dim {
            size: 256
          }
        }
      }
    }
  }
}
node {
  name: "Train/Model/lstm/multi_rnn_cell_1/cell_1/basic_lstm_cell/Tanh_1"
  op: "Tanh"
  input: "Train/Model/lstm/multi_rnn_cell_1/cell_1/basic_lstm_cell/add_1"
  attr {
    key: "T"
    value {
      type: DT_FLOAT
    }
  }
  attr {
    key: "_output_shapes"
    value {
      list {
        shape {
          dim {
            size: 128
          }
          dim {
            size: 256
          }
        }
      }
    }
  }
}
node {
  name: "Train/Model/lstm/multi_rnn_cell_1/cell_1/basic_lstm_cell/Sigmoid_2"
  op: "Sigmoid"
  input: "Train/Model/lstm/multi_rnn_cell_1/cell_1/basic_lstm_cell/split:3"
  attr {
    key: "T"
    value {
      type: DT_FLOAT
    }
  }
  attr {
    key: "_output_shapes"
    value {
      list {
        shape {
          dim {
            size: 128
          }
          dim {
            size: 256
          }
        }
      }
    }
  }
}
node {
  name: "Train/Model/lstm/multi_rnn_cell_1/cell_1/basic_lstm_cell/mul_2"
  op: "Mul"
  input: "Train/Model/lstm/multi_rnn_cell_1/cell_1/basic_lstm_cell/Tanh_1"
  input: "Train/Model/lstm/multi_rnn_cell_1/cell_1/basic_lstm_cell/Sigmoid_2"
  attr {
    key: "T"
    value {
      type: DT_FLOAT
    }
  }
  attr {
    key: "_output_shapes"
    value {
      list {
        shape {
          dim {
            size: 128
          }
          dim {
            size: 256
          }
        }
      }
    }
  }
}
node {
  name: "Train/Model/lstm/strided_slice_2/stack"
  op: "Const"
  attr {
    key: "_output_shapes"
    value {
      list {
        shape {
          dim {
            size: 3
          }
        }
      }
    }
  }
  attr {
    key: "dtype"
    value {
      type: DT_INT32
    }
  }
  attr {
    key: "value"
    value {
      tensor {
        dtype: DT_INT32
        tensor_shape {
          dim {
            size: 3
          }
        }
        tensor_content: "\000\000\000\000\002\000\000\000\000\000\000\000"
      }
    }
  }
}
node {
  name: "Train/Model/lstm/strided_slice_2/stack_1"
  op: "Const"
  attr {
    key: "_output_shapes"
    value {
      list {
        shape {
          dim {
            size: 3
          }
        }
      }
    }
  }
  attr {
    key: "dtype"
    value {
      type: DT_INT32
    }
  }
  attr {
    key: "value"
    value {
      tensor {
        dtype: DT_INT32
        tensor_shape {
          dim {
            size: 3
          }
        }
        tensor_content: "\000\000\000\000\003\000\000\000\000\000\000\000"
      }
    }
  }
}
node {
  name: "Train/Model/lstm/strided_slice_2/stack_2"
  op: "Const"
  attr {
    key: "_output_shapes"
    value {
      list {
        shape {
          dim {
            size: 3
          }
        }
      }
    }
  }
  attr {
    key: "dtype"
    value {
      type: DT_INT32
    }
  }
  attr {
    key: "value"
    value {
      tensor {
        dtype: DT_INT32
        tensor_shape {
          dim {
            size: 3
          }
        }
        tensor_content: "\001\000\000\000\001\000\000\000\001\000\000\000"
      }
    }
  }
}
node {
  name: "Train/Model/lstm/strided_slice_2"
  op: "StridedSlice"
  input: "Train/Model/embedding_lookup"
  input: "Train/Model/lstm/strided_slice_2/stack"
  input: "Train/Model/lstm/strided_slice_2/stack_1"
  input: "Train/Model/lstm/strided_slice_2/stack_2"
  attr {
    key: "Index"
    value {
      type: DT_INT32
    }
  }
  attr {
    key: "T"
    value {
      type: DT_FLOAT
    }
  }
  attr {
    key: "_output_shapes"
    value {
      list {
        shape {
          dim {
            size: -1
          }
          dim {
            size: 256
          }
        }
      }
    }
  }
  attr {
    key: "begin_mask"
    value {
      i: 5
    }
  }
  attr {
    key: "ellipsis_mask"
    value {
      i: 0
    }
  }
  attr {
    key: "end_mask"
    value {
      i: 5
    }
  }
  attr {
    key: "new_axis_mask"
    value {
      i: 0
    }
  }
  attr {
    key: "shrink_axis_mask"
    value {
      i: 2
    }
  }
}
node {
  name: "Train/Model/lstm/multi_rnn_cell_2/cell_0/basic_lstm_cell/basic_lstm_cell/concat/axis"
  op: "Const"
  attr {
    key: "_output_shapes"
    value {
      list {
        shape {
        }
      }
    }
  }
  attr {
    key: "dtype"
    value {
      type: DT_INT32
    }
  }
  attr {
    key: "value"
    value {
      tensor {
        dtype: DT_INT32
        tensor_shape {
        }
        int_val: 1
      }
    }
  }
}
node {
  name: "Train/Model/lstm/multi_rnn_cell_2/cell_0/basic_lstm_cell/basic_lstm_cell/concat"
  op: "ConcatV2"
  input: "Train/Model/lstm/strided_slice_2"
  input: "Train/Model/lstm/multi_rnn_cell_1/cell_0/basic_lstm_cell/mul_2"
  input: "Train/Model/lstm/multi_rnn_cell_2/cell_0/basic_lstm_cell/basic_lstm_cell/concat/axis"
  attr {
    key: "N"
    value {
      i: 2
    }
  }
  attr {
    key: "T"
    value {
      type: DT_FLOAT
    }
  }
  attr {
    key: "Tidx"
    value {
      type: DT_INT32
    }
  }
  attr {
    key: "_output_shapes"
    value {
      list {
        shape {
          dim {
            size: 128
          }
          dim {
            size: 512
          }
        }
      }
    }
  }
}
node {
  name: "Train/Model/lstm/multi_rnn_cell_2/cell_0/basic_lstm_cell/basic_lstm_cell/MatMul"
  op: "MatMul"
  input: "Train/Model/lstm/multi_rnn_cell_2/cell_0/basic_lstm_cell/basic_lstm_cell/concat"
  input: "Model/lstm/multi_rnn_cell/cell_0/basic_lstm_cell/weights/read"
  attr {
    key: "T"
    value {
      type: DT_FLOAT
    }
  }
  attr {
    key: "_output_shapes"
    value {
      list {
        shape {
          dim {
            size: 128
          }
          dim {
            size: 1024
          }
        }
      }
    }
  }
  attr {
    key: "transpose_a"
    value {
      b: false
    }
  }
  attr {
    key: "transpose_b"
    value {
      b: false
    }
  }
}
node {
  name: "Train/Model/lstm/multi_rnn_cell_2/cell_0/basic_lstm_cell/BiasAdd"
  op: "BiasAdd"
  input: "Train/Model/lstm/multi_rnn_cell_2/cell_0/basic_lstm_cell/basic_lstm_cell/MatMul"
  input: "Model/lstm/multi_rnn_cell/cell_0/basic_lstm_cell/biases/read"
  attr {
    key: "T"
    value {
      type: DT_FLOAT
    }
  }
  attr {
    key: "_output_shapes"
    value {
      list {
        shape {
          dim {
            size: 128
          }
          dim {
            size: 1024
          }
        }
      }
    }
  }
  attr {
    key: "data_format"
    value {
      s: "NHWC"
    }
  }
}
node {
  name: "Train/Model/lstm/multi_rnn_cell_2/cell_0/basic_lstm_cell/split/split_dim"
  op: "Const"
  attr {
    key: "_output_shapes"
    value {
      list {
        shape {
        }
      }
    }
  }
  attr {
    key: "dtype"
    value {
      type: DT_INT32
    }
  }
  attr {
    key: "value"
    value {
      tensor {
        dtype: DT_INT32
        tensor_shape {
        }
        int_val: 1
      }
    }
  }
}
node {
  name: "Train/Model/lstm/multi_rnn_cell_2/cell_0/basic_lstm_cell/split"
  op: "Split"
  input: "Train/Model/lstm/multi_rnn_cell_2/cell_0/basic_lstm_cell/split/split_dim"
  input: "Train/Model/lstm/multi_rnn_cell_2/cell_0/basic_lstm_cell/BiasAdd"
  attr {
    key: "T"
    value {
      type: DT_FLOAT
    }
  }
  attr {
    key: "_output_shapes"
    value {
      list {
        shape {
          dim {
            size: 128
          }
          dim {
            size: 256
          }
        }
        shape {
          dim {
            size: 128
          }
          dim {
            size: 256
          }
        }
        shape {
          dim {
            size: 128
          }
          dim {
            size: 256
          }
        }
        shape {
          dim {
            size: 128
          }
          dim {
            size: 256
          }
        }
      }
    }
  }
  attr {
    key: "num_split"
    value {
      i: 4
    }
  }
}
node {
  name: "Train/Model/lstm/multi_rnn_cell_2/cell_0/basic_lstm_cell/add/y"
  op: "Const"
  attr {
    key: "_output_shapes"
    value {
      list {
        shape {
        }
      }
    }
  }
  attr {
    key: "dtype"
    value {
      type: DT_FLOAT
    }
  }
  attr {
    key: "value"
    value {
      tensor {
        dtype: DT_FLOAT
        tensor_shape {
        }
        float_val: 0.0
      }
    }
  }
}
node {
  name: "Train/Model/lstm/multi_rnn_cell_2/cell_0/basic_lstm_cell/add"
  op: "Add"
  input: "Train/Model/lstm/multi_rnn_cell_2/cell_0/basic_lstm_cell/split:2"
  input: "Train/Model/lstm/multi_rnn_cell_2/cell_0/basic_lstm_cell/add/y"
  attr {
    key: "T"
    value {
      type: DT_FLOAT
    }
  }
  attr {
    key: "_output_shapes"
    value {
      list {
        shape {
          dim {
            size: 128
          }
          dim {
            size: 256
          }
        }
      }
    }
  }
}
node {
  name: "Train/Model/lstm/multi_rnn_cell_2/cell_0/basic_lstm_cell/Sigmoid"
  op: "Sigmoid"
  input: "Train/Model/lstm/multi_rnn_cell_2/cell_0/basic_lstm_cell/add"
  attr {
    key: "T"
    value {
      type: DT_FLOAT
    }
  }
  attr {
    key: "_output_shapes"
    value {
      list {
        shape {
          dim {
            size: 128
          }
          dim {
            size: 256
          }
        }
      }
    }
  }
}
node {
  name: "Train/Model/lstm/multi_rnn_cell_2/cell_0/basic_lstm_cell/mul"
  op: "Mul"
  input: "Train/Model/lstm/multi_rnn_cell_1/cell_0/basic_lstm_cell/add_1"
  input: "Train/Model/lstm/multi_rnn_cell_2/cell_0/basic_lstm_cell/Sigmoid"
  attr {
    key: "T"
    value {
      type: DT_FLOAT
    }
  }
  attr {
    key: "_output_shapes"
    value {
      list {
        shape {
          dim {
            size: 128
          }
          dim {
            size: 256
          }
        }
      }
    }
  }
}
node {
  name: "Train/Model/lstm/multi_rnn_cell_2/cell_0/basic_lstm_cell/Sigmoid_1"
  op: "Sigmoid"
  input: "Train/Model/lstm/multi_rnn_cell_2/cell_0/basic_lstm_cell/split"
  attr {
    key: "T"
    value {
      type: DT_FLOAT
    }
  }
  attr {
    key: "_output_shapes"
    value {
      list {
        shape {
          dim {
            size: 128
          }
          dim {
            size: 256
          }
        }
      }
    }
  }
}
node {
  name: "Train/Model/lstm/multi_rnn_cell_2/cell_0/basic_lstm_cell/Tanh"
  op: "Tanh"
  input: "Train/Model/lstm/multi_rnn_cell_2/cell_0/basic_lstm_cell/split:1"
  attr {
    key: "T"
    value {
      type: DT_FLOAT
    }
  }
  attr {
    key: "_output_shapes"
    value {
      list {
        shape {
          dim {
            size: 128
          }
          dim {
            size: 256
          }
        }
      }
    }
  }
}
node {
  name: "Train/Model/lstm/multi_rnn_cell_2/cell_0/basic_lstm_cell/mul_1"
  op: "Mul"
  input: "Train/Model/lstm/multi_rnn_cell_2/cell_0/basic_lstm_cell/Sigmoid_1"
  input: "Train/Model/lstm/multi_rnn_cell_2/cell_0/basic_lstm_cell/Tanh"
  attr {
    key: "T"
    value {
      type: DT_FLOAT
    }
  }
  attr {
    key: "_output_shapes"
    value {
      list {
        shape {
          dim {
            size: 128
          }
          dim {
            size: 256
          }
        }
      }
    }
  }
}
node {
  name: "Train/Model/lstm/multi_rnn_cell_2/cell_0/basic_lstm_cell/add_1"
  op: "Add"
  input: "Train/Model/lstm/multi_rnn_cell_2/cell_0/basic_lstm_cell/mul"
  input: "Train/Model/lstm/multi_rnn_cell_2/cell_0/basic_lstm_cell/mul_1"
  attr {
    key: "T"
    value {
      type: DT_FLOAT
    }
  }
  attr {
    key: "_output_shapes"
    value {
      list {
        shape {
          dim {
            size: 128
          }
          dim {
            size: 256
          }
        }
      }
    }
  }
}
node {
  name: "Train/Model/lstm/multi_rnn_cell_2/cell_0/basic_lstm_cell/Tanh_1"
  op: "Tanh"
  input: "Train/Model/lstm/multi_rnn_cell_2/cell_0/basic_lstm_cell/add_1"
  attr {
    key: "T"
    value {
      type: DT_FLOAT
    }
  }
  attr {
    key: "_output_shapes"
    value {
      list {
        shape {
          dim {
            size: 128
          }
          dim {
            size: 256
          }
        }
      }
    }
  }
}
node {
  name: "Train/Model/lstm/multi_rnn_cell_2/cell_0/basic_lstm_cell/Sigmoid_2"
  op: "Sigmoid"
  input: "Train/Model/lstm/multi_rnn_cell_2/cell_0/basic_lstm_cell/split:3"
  attr {
    key: "T"
    value {
      type: DT_FLOAT
    }
  }
  attr {
    key: "_output_shapes"
    value {
      list {
        shape {
          dim {
            size: 128
          }
          dim {
            size: 256
          }
        }
      }
    }
  }
}
node {
  name: "Train/Model/lstm/multi_rnn_cell_2/cell_0/basic_lstm_cell/mul_2"
  op: "Mul"
  input: "Train/Model/lstm/multi_rnn_cell_2/cell_0/basic_lstm_cell/Tanh_1"
  input: "Train/Model/lstm/multi_rnn_cell_2/cell_0/basic_lstm_cell/Sigmoid_2"
  attr {
    key: "T"
    value {
      type: DT_FLOAT
    }
  }
  attr {
    key: "_output_shapes"
    value {
      list {
        shape {
          dim {
            size: 128
          }
          dim {
            size: 256
          }
        }
      }
    }
  }
}
node {
  name: "Train/Model/lstm/multi_rnn_cell_2/cell_1/basic_lstm_cell/basic_lstm_cell/concat/axis"
  op: "Const"
  attr {
    key: "_output_shapes"
    value {
      list {
        shape {
        }
      }
    }
  }
  attr {
    key: "dtype"
    value {
      type: DT_INT32
    }
  }
  attr {
    key: "value"
    value {
      tensor {
        dtype: DT_INT32
        tensor_shape {
        }
        int_val: 1
      }
    }
  }
}
node {
  name: "Train/Model/lstm/multi_rnn_cell_2/cell_1/basic_lstm_cell/basic_lstm_cell/concat"
  op: "ConcatV2"
  input: "Train/Model/lstm/multi_rnn_cell_2/cell_0/basic_lstm_cell/mul_2"
  input: "Train/Model/lstm/multi_rnn_cell_1/cell_1/basic_lstm_cell/mul_2"
  input: "Train/Model/lstm/multi_rnn_cell_2/cell_1/basic_lstm_cell/basic_lstm_cell/concat/axis"
  attr {
    key: "N"
    value {
      i: 2
    }
  }
  attr {
    key: "T"
    value {
      type: DT_FLOAT
    }
  }
  attr {
    key: "Tidx"
    value {
      type: DT_INT32
    }
  }
  attr {
    key: "_output_shapes"
    value {
      list {
        shape {
          dim {
            size: 128
          }
          dim {
            size: 512
          }
        }
      }
    }
  }
}
node {
  name: "Train/Model/lstm/multi_rnn_cell_2/cell_1/basic_lstm_cell/basic_lstm_cell/MatMul"
  op: "MatMul"
  input: "Train/Model/lstm/multi_rnn_cell_2/cell_1/basic_lstm_cell/basic_lstm_cell/concat"
  input: "Model/lstm/multi_rnn_cell/cell_1/basic_lstm_cell/weights/read"
  attr {
    key: "T"
    value {
      type: DT_FLOAT
    }
  }
  attr {
    key: "_output_shapes"
    value {
      list {
        shape {
          dim {
            size: 128
          }
          dim {
            size: 1024
          }
        }
      }
    }
  }
  attr {
    key: "transpose_a"
    value {
      b: false
    }
  }
  attr {
    key: "transpose_b"
    value {
      b: false
    }
  }
}
node {
  name: "Train/Model/lstm/multi_rnn_cell_2/cell_1/basic_lstm_cell/BiasAdd"
  op: "BiasAdd"
  input: "Train/Model/lstm/multi_rnn_cell_2/cell_1/basic_lstm_cell/basic_lstm_cell/MatMul"
  input: "Model/lstm/multi_rnn_cell/cell_1/basic_lstm_cell/biases/read"
  attr {
    key: "T"
    value {
      type: DT_FLOAT
    }
  }
  attr {
    key: "_output_shapes"
    value {
      list {
        shape {
          dim {
            size: 128
          }
          dim {
            size: 1024
          }
        }
      }
    }
  }
  attr {
    key: "data_format"
    value {
      s: "NHWC"
    }
  }
}
node {
  name: "Train/Model/lstm/multi_rnn_cell_2/cell_1/basic_lstm_cell/split/split_dim"
  op: "Const"
  attr {
    key: "_output_shapes"
    value {
      list {
        shape {
        }
      }
    }
  }
  attr {
    key: "dtype"
    value {
      type: DT_INT32
    }
  }
  attr {
    key: "value"
    value {
      tensor {
        dtype: DT_INT32
        tensor_shape {
        }
        int_val: 1
      }
    }
  }
}
node {
  name: "Train/Model/lstm/multi_rnn_cell_2/cell_1/basic_lstm_cell/split"
  op: "Split"
  input: "Train/Model/lstm/multi_rnn_cell_2/cell_1/basic_lstm_cell/split/split_dim"
  input: "Train/Model/lstm/multi_rnn_cell_2/cell_1/basic_lstm_cell/BiasAdd"
  attr {
    key: "T"
    value {
      type: DT_FLOAT
    }
  }
  attr {
    key: "_output_shapes"
    value {
      list {
        shape {
          dim {
            size: 128
          }
          dim {
            size: 256
          }
        }
        shape {
          dim {
            size: 128
          }
          dim {
            size: 256
          }
        }
        shape {
          dim {
            size: 128
          }
          dim {
            size: 256
          }
        }
        shape {
          dim {
            size: 128
          }
          dim {
            size: 256
          }
        }
      }
    }
  }
  attr {
    key: "num_split"
    value {
      i: 4
    }
  }
}
node {
  name: "Train/Model/lstm/multi_rnn_cell_2/cell_1/basic_lstm_cell/add/y"
  op: "Const"
  attr {
    key: "_output_shapes"
    value {
      list {
        shape {
        }
      }
    }
  }
  attr {
    key: "dtype"
    value {
      type: DT_FLOAT
    }
  }
  attr {
    key: "value"
    value {
      tensor {
        dtype: DT_FLOAT
        tensor_shape {
        }
        float_val: 0.0
      }
    }
  }
}
node {
  name: "Train/Model/lstm/multi_rnn_cell_2/cell_1/basic_lstm_cell/add"
  op: "Add"
  input: "Train/Model/lstm/multi_rnn_cell_2/cell_1/basic_lstm_cell/split:2"
  input: "Train/Model/lstm/multi_rnn_cell_2/cell_1/basic_lstm_cell/add/y"
  attr {
    key: "T"
    value {
      type: DT_FLOAT
    }
  }
  attr {
    key: "_output_shapes"
    value {
      list {
        shape {
          dim {
            size: 128
          }
          dim {
            size: 256
          }
        }
      }
    }
  }
}
node {
  name: "Train/Model/lstm/multi_rnn_cell_2/cell_1/basic_lstm_cell/Sigmoid"
  op: "Sigmoid"
  input: "Train/Model/lstm/multi_rnn_cell_2/cell_1/basic_lstm_cell/add"
  attr {
    key: "T"
    value {
      type: DT_FLOAT
    }
  }
  attr {
    key: "_output_shapes"
    value {
      list {
        shape {
          dim {
            size: 128
          }
          dim {
            size: 256
          }
        }
      }
    }
  }
}
node {
  name: "Train/Model/lstm/multi_rnn_cell_2/cell_1/basic_lstm_cell/mul"
  op: "Mul"
  input: "Train/Model/lstm/multi_rnn_cell_1/cell_1/basic_lstm_cell/add_1"
  input: "Train/Model/lstm/multi_rnn_cell_2/cell_1/basic_lstm_cell/Sigmoid"
  attr {
    key: "T"
    value {
      type: DT_FLOAT
    }
  }
  attr {
    key: "_output_shapes"
    value {
      list {
        shape {
          dim {
            size: 128
          }
          dim {
            size: 256
          }
        }
      }
    }
  }
}
node {
  name: "Train/Model/lstm/multi_rnn_cell_2/cell_1/basic_lstm_cell/Sigmoid_1"
  op: "Sigmoid"
  input: "Train/Model/lstm/multi_rnn_cell_2/cell_1/basic_lstm_cell/split"
  attr {
    key: "T"
    value {
      type: DT_FLOAT
    }
  }
  attr {
    key: "_output_shapes"
    value {
      list {
        shape {
          dim {
            size: 128
          }
          dim {
            size: 256
          }
        }
      }
    }
  }
}
node {
  name: "Train/Model/lstm/multi_rnn_cell_2/cell_1/basic_lstm_cell/Tanh"
  op: "Tanh"
  input: "Train/Model/lstm/multi_rnn_cell_2/cell_1/basic_lstm_cell/split:1"
  attr {
    key: "T"
    value {
      type: DT_FLOAT
    }
  }
  attr {
    key: "_output_shapes"
    value {
      list {
        shape {
          dim {
            size: 128
          }
          dim {
            size: 256
          }
        }
      }
    }
  }
}
node {
  name: "Train/Model/lstm/multi_rnn_cell_2/cell_1/basic_lstm_cell/mul_1"
  op: "Mul"
  input: "Train/Model/lstm/multi_rnn_cell_2/cell_1/basic_lstm_cell/Sigmoid_1"
  input: "Train/Model/lstm/multi_rnn_cell_2/cell_1/basic_lstm_cell/Tanh"
  attr {
    key: "T"
    value {
      type: DT_FLOAT
    }
  }
  attr {
    key: "_output_shapes"
    value {
      list {
        shape {
          dim {
            size: 128
          }
          dim {
            size: 256
          }
        }
      }
    }
  }
}
node {
  name: "Train/Model/lstm/multi_rnn_cell_2/cell_1/basic_lstm_cell/add_1"
  op: "Add"
  input: "Train/Model/lstm/multi_rnn_cell_2/cell_1/basic_lstm_cell/mul"
  input: "Train/Model/lstm/multi_rnn_cell_2/cell_1/basic_lstm_cell/mul_1"
  attr {
    key: "T"
    value {
      type: DT_FLOAT
    }
  }
  attr {
    key: "_output_shapes"
    value {
      list {
        shape {
          dim {
            size: 128
          }
          dim {
            size: 256
          }
        }
      }
    }
  }
}
node {
  name: "Train/Model/lstm/multi_rnn_cell_2/cell_1/basic_lstm_cell/Tanh_1"
  op: "Tanh"
  input: "Train/Model/lstm/multi_rnn_cell_2/cell_1/basic_lstm_cell/add_1"
  attr {
    key: "T"
    value {
      type: DT_FLOAT
    }
  }
  attr {
    key: "_output_shapes"
    value {
      list {
        shape {
          dim {
            size: 128
          }
          dim {
            size: 256
          }
        }
      }
    }
  }
}
node {
  name: "Train/Model/lstm/multi_rnn_cell_2/cell_1/basic_lstm_cell/Sigmoid_2"
  op: "Sigmoid"
  input: "Train/Model/lstm/multi_rnn_cell_2/cell_1/basic_lstm_cell/split:3"
  attr {
    key: "T"
    value {
      type: DT_FLOAT
    }
  }
  attr {
    key: "_output_shapes"
    value {
      list {
        shape {
          dim {
            size: 128
          }
          dim {
            size: 256
          }
        }
      }
    }
  }
}
node {
  name: "Train/Model/lstm/multi_rnn_cell_2/cell_1/basic_lstm_cell/mul_2"
  op: "Mul"
  input: "Train/Model/lstm/multi_rnn_cell_2/cell_1/basic_lstm_cell/Tanh_1"
  input: "Train/Model/lstm/multi_rnn_cell_2/cell_1/basic_lstm_cell/Sigmoid_2"
  attr {
    key: "T"
    value {
      type: DT_FLOAT
    }
  }
  attr {
    key: "_output_shapes"
    value {
      list {
        shape {
          dim {
            size: 128
          }
          dim {
            size: 256
          }
        }
      }
    }
  }
}
node {
  name: "Train/Model/lstm/strided_slice_3/stack"
  op: "Const"
  attr {
    key: "_output_shapes"
    value {
      list {
        shape {
          dim {
            size: 3
          }
        }
      }
    }
  }
  attr {
    key: "dtype"
    value {
      type: DT_INT32
    }
  }
  attr {
    key: "value"
    value {
      tensor {
        dtype: DT_INT32
        tensor_shape {
          dim {
            size: 3
          }
        }
        tensor_content: "\000\000\000\000\003\000\000\000\000\000\000\000"
      }
    }
  }
}
node {
  name: "Train/Model/lstm/strided_slice_3/stack_1"
  op: "Const"
  attr {
    key: "_output_shapes"
    value {
      list {
        shape {
          dim {
            size: 3
          }
        }
      }
    }
  }
  attr {
    key: "dtype"
    value {
      type: DT_INT32
    }
  }
  attr {
    key: "value"
    value {
      tensor {
        dtype: DT_INT32
        tensor_shape {
          dim {
            size: 3
          }
        }
        tensor_content: "\000\000\000\000\004\000\000\000\000\000\000\000"
      }
    }
  }
}
node {
  name: "Train/Model/lstm/strided_slice_3/stack_2"
  op: "Const"
  attr {
    key: "_output_shapes"
    value {
      list {
        shape {
          dim {
            size: 3
          }
        }
      }
    }
  }
  attr {
    key: "dtype"
    value {
      type: DT_INT32
    }
  }
  attr {
    key: "value"
    value {
      tensor {
        dtype: DT_INT32
        tensor_shape {
          dim {
            size: 3
          }
        }
        tensor_content: "\001\000\000\000\001\000\000\000\001\000\000\000"
      }
    }
  }
}
node {
  name: "Train/Model/lstm/strided_slice_3"
  op: "StridedSlice"
  input: "Train/Model/embedding_lookup"
  input: "Train/Model/lstm/strided_slice_3/stack"
  input: "Train/Model/lstm/strided_slice_3/stack_1"
  input: "Train/Model/lstm/strided_slice_3/stack_2"
  attr {
    key: "Index"
    value {
      type: DT_INT32
    }
  }
  attr {
    key: "T"
    value {
      type: DT_FLOAT
    }
  }
  attr {
    key: "_output_shapes"
    value {
      list {
        shape {
          dim {
            size: -1
          }
          dim {
            size: 256
          }
        }
      }
    }
  }
  attr {
    key: "begin_mask"
    value {
      i: 5
    }
  }
  attr {
    key: "ellipsis_mask"
    value {
      i: 0
    }
  }
  attr {
    key: "end_mask"
    value {
      i: 5
    }
  }
  attr {
    key: "new_axis_mask"
    value {
      i: 0
    }
  }
  attr {
    key: "shrink_axis_mask"
    value {
      i: 2
    }
  }
}
node {
  name: "Train/Model/lstm/multi_rnn_cell_3/cell_0/basic_lstm_cell/basic_lstm_cell/concat/axis"
  op: "Const"
  attr {
    key: "_output_shapes"
    value {
      list {
        shape {
        }
      }
    }
  }
  attr {
    key: "dtype"
    value {
      type: DT_INT32
    }
  }
  attr {
    key: "value"
    value {
      tensor {
        dtype: DT_INT32
        tensor_shape {
        }
        int_val: 1
      }
    }
  }
}
node {
  name: "Train/Model/lstm/multi_rnn_cell_3/cell_0/basic_lstm_cell/basic_lstm_cell/concat"
  op: "ConcatV2"
  input: "Train/Model/lstm/strided_slice_3"
  input: "Train/Model/lstm/multi_rnn_cell_2/cell_0/basic_lstm_cell/mul_2"
  input: "Train/Model/lstm/multi_rnn_cell_3/cell_0/basic_lstm_cell/basic_lstm_cell/concat/axis"
  attr {
    key: "N"
    value {
      i: 2
    }
  }
  attr {
    key: "T"
    value {
      type: DT_FLOAT
    }
  }
  attr {
    key: "Tidx"
    value {
      type: DT_INT32
    }
  }
  attr {
    key: "_output_shapes"
    value {
      list {
        shape {
          dim {
            size: 128
          }
          dim {
            size: 512
          }
        }
      }
    }
  }
}
node {
  name: "Train/Model/lstm/multi_rnn_cell_3/cell_0/basic_lstm_cell/basic_lstm_cell/MatMul"
  op: "MatMul"
  input: "Train/Model/lstm/multi_rnn_cell_3/cell_0/basic_lstm_cell/basic_lstm_cell/concat"
  input: "Model/lstm/multi_rnn_cell/cell_0/basic_lstm_cell/weights/read"
  attr {
    key: "T"
    value {
      type: DT_FLOAT
    }
  }
  attr {
    key: "_output_shapes"
    value {
      list {
        shape {
          dim {
            size: 128
          }
          dim {
            size: 1024
          }
        }
      }
    }
  }
  attr {
    key: "transpose_a"
    value {
      b: false
    }
  }
  attr {
    key: "transpose_b"
    value {
      b: false
    }
  }
}
node {
  name: "Train/Model/lstm/multi_rnn_cell_3/cell_0/basic_lstm_cell/BiasAdd"
  op: "BiasAdd"
  input: "Train/Model/lstm/multi_rnn_cell_3/cell_0/basic_lstm_cell/basic_lstm_cell/MatMul"
  input: "Model/lstm/multi_rnn_cell/cell_0/basic_lstm_cell/biases/read"
  attr {
    key: "T"
    value {
      type: DT_FLOAT
    }
  }
  attr {
    key: "_output_shapes"
    value {
      list {
        shape {
          dim {
            size: 128
          }
          dim {
            size: 1024
          }
        }
      }
    }
  }
  attr {
    key: "data_format"
    value {
      s: "NHWC"
    }
  }
}
node {
  name: "Train/Model/lstm/multi_rnn_cell_3/cell_0/basic_lstm_cell/split/split_dim"
  op: "Const"
  attr {
    key: "_output_shapes"
    value {
      list {
        shape {
        }
      }
    }
  }
  attr {
    key: "dtype"
    value {
      type: DT_INT32
    }
  }
  attr {
    key: "value"
    value {
      tensor {
        dtype: DT_INT32
        tensor_shape {
        }
        int_val: 1
      }
    }
  }
}
node {
  name: "Train/Model/lstm/multi_rnn_cell_3/cell_0/basic_lstm_cell/split"
  op: "Split"
  input: "Train/Model/lstm/multi_rnn_cell_3/cell_0/basic_lstm_cell/split/split_dim"
  input: "Train/Model/lstm/multi_rnn_cell_3/cell_0/basic_lstm_cell/BiasAdd"
  attr {
    key: "T"
    value {
      type: DT_FLOAT
    }
  }
  attr {
    key: "_output_shapes"
    value {
      list {
        shape {
          dim {
            size: 128
          }
          dim {
            size: 256
          }
        }
        shape {
          dim {
            size: 128
          }
          dim {
            size: 256
          }
        }
        shape {
          dim {
            size: 128
          }
          dim {
            size: 256
          }
        }
        shape {
          dim {
            size: 128
          }
          dim {
            size: 256
          }
        }
      }
    }
  }
  attr {
    key: "num_split"
    value {
      i: 4
    }
  }
}
node {
  name: "Train/Model/lstm/multi_rnn_cell_3/cell_0/basic_lstm_cell/add/y"
  op: "Const"
  attr {
    key: "_output_shapes"
    value {
      list {
        shape {
        }
      }
    }
  }
  attr {
    key: "dtype"
    value {
      type: DT_FLOAT
    }
  }
  attr {
    key: "value"
    value {
      tensor {
        dtype: DT_FLOAT
        tensor_shape {
        }
        float_val: 0.0
      }
    }
  }
}
node {
  name: "Train/Model/lstm/multi_rnn_cell_3/cell_0/basic_lstm_cell/add"
  op: "Add"
  input: "Train/Model/lstm/multi_rnn_cell_3/cell_0/basic_lstm_cell/split:2"
  input: "Train/Model/lstm/multi_rnn_cell_3/cell_0/basic_lstm_cell/add/y"
  attr {
    key: "T"
    value {
      type: DT_FLOAT
    }
  }
  attr {
    key: "_output_shapes"
    value {
      list {
        shape {
          dim {
            size: 128
          }
          dim {
            size: 256
          }
        }
      }
    }
  }
}
node {
  name: "Train/Model/lstm/multi_rnn_cell_3/cell_0/basic_lstm_cell/Sigmoid"
  op: "Sigmoid"
  input: "Train/Model/lstm/multi_rnn_cell_3/cell_0/basic_lstm_cell/add"
  attr {
    key: "T"
    value {
      type: DT_FLOAT
    }
  }
  attr {
    key: "_output_shapes"
    value {
      list {
        shape {
          dim {
            size: 128
          }
          dim {
            size: 256
          }
        }
      }
    }
  }
}
node {
  name: "Train/Model/lstm/multi_rnn_cell_3/cell_0/basic_lstm_cell/mul"
  op: "Mul"
  input: "Train/Model/lstm/multi_rnn_cell_2/cell_0/basic_lstm_cell/add_1"
  input: "Train/Model/lstm/multi_rnn_cell_3/cell_0/basic_lstm_cell/Sigmoid"
  attr {
    key: "T"
    value {
      type: DT_FLOAT
    }
  }
  attr {
    key: "_output_shapes"
    value {
      list {
        shape {
          dim {
            size: 128
          }
          dim {
            size: 256
          }
        }
      }
    }
  }
}
node {
  name: "Train/Model/lstm/multi_rnn_cell_3/cell_0/basic_lstm_cell/Sigmoid_1"
  op: "Sigmoid"
  input: "Train/Model/lstm/multi_rnn_cell_3/cell_0/basic_lstm_cell/split"
  attr {
    key: "T"
    value {
      type: DT_FLOAT
    }
  }
  attr {
    key: "_output_shapes"
    value {
      list {
        shape {
          dim {
            size: 128
          }
          dim {
            size: 256
          }
        }
      }
    }
  }
}
node {
  name: "Train/Model/lstm/multi_rnn_cell_3/cell_0/basic_lstm_cell/Tanh"
  op: "Tanh"
  input: "Train/Model/lstm/multi_rnn_cell_3/cell_0/basic_lstm_cell/split:1"
  attr {
    key: "T"
    value {
      type: DT_FLOAT
    }
  }
  attr {
    key: "_output_shapes"
    value {
      list {
        shape {
          dim {
            size: 128
          }
          dim {
            size: 256
          }
        }
      }
    }
  }
}
node {
  name: "Train/Model/lstm/multi_rnn_cell_3/cell_0/basic_lstm_cell/mul_1"
  op: "Mul"
  input: "Train/Model/lstm/multi_rnn_cell_3/cell_0/basic_lstm_cell/Sigmoid_1"
  input: "Train/Model/lstm/multi_rnn_cell_3/cell_0/basic_lstm_cell/Tanh"
  attr {
    key: "T"
    value {
      type: DT_FLOAT
    }
  }
  attr {
    key: "_output_shapes"
    value {
      list {
        shape {
          dim {
            size: 128
          }
          dim {
            size: 256
          }
        }
      }
    }
  }
}
node {
  name: "Train/Model/lstm/multi_rnn_cell_3/cell_0/basic_lstm_cell/add_1"
  op: "Add"
  input: "Train/Model/lstm/multi_rnn_cell_3/cell_0/basic_lstm_cell/mul"
  input: "Train/Model/lstm/multi_rnn_cell_3/cell_0/basic_lstm_cell/mul_1"
  attr {
    key: "T"
    value {
      type: DT_FLOAT
    }
  }
  attr {
    key: "_output_shapes"
    value {
      list {
        shape {
          dim {
            size: 128
          }
          dim {
            size: 256
          }
        }
      }
    }
  }
}
node {
  name: "Train/Model/lstm/multi_rnn_cell_3/cell_0/basic_lstm_cell/Tanh_1"
  op: "Tanh"
  input: "Train/Model/lstm/multi_rnn_cell_3/cell_0/basic_lstm_cell/add_1"
  attr {
    key: "T"
    value {
      type: DT_FLOAT
    }
  }
  attr {
    key: "_output_shapes"
    value {
      list {
        shape {
          dim {
            size: 128
          }
          dim {
            size: 256
          }
        }
      }
    }
  }
}
node {
  name: "Train/Model/lstm/multi_rnn_cell_3/cell_0/basic_lstm_cell/Sigmoid_2"
  op: "Sigmoid"
  input: "Train/Model/lstm/multi_rnn_cell_3/cell_0/basic_lstm_cell/split:3"
  attr {
    key: "T"
    value {
      type: DT_FLOAT
    }
  }
  attr {
    key: "_output_shapes"
    value {
      list {
        shape {
          dim {
            size: 128
          }
          dim {
            size: 256
          }
        }
      }
    }
  }
}
node {
  name: "Train/Model/lstm/multi_rnn_cell_3/cell_0/basic_lstm_cell/mul_2"
  op: "Mul"
  input: "Train/Model/lstm/multi_rnn_cell_3/cell_0/basic_lstm_cell/Tanh_1"
  input: "Train/Model/lstm/multi_rnn_cell_3/cell_0/basic_lstm_cell/Sigmoid_2"
  attr {
    key: "T"
    value {
      type: DT_FLOAT
    }
  }
  attr {
    key: "_output_shapes"
    value {
      list {
        shape {
          dim {
            size: 128
          }
          dim {
            size: 256
          }
        }
      }
    }
  }
}
node {
  name: "Train/Model/lstm/multi_rnn_cell_3/cell_1/basic_lstm_cell/basic_lstm_cell/concat/axis"
  op: "Const"
  attr {
    key: "_output_shapes"
    value {
      list {
        shape {
        }
      }
    }
  }
  attr {
    key: "dtype"
    value {
      type: DT_INT32
    }
  }
  attr {
    key: "value"
    value {
      tensor {
        dtype: DT_INT32
        tensor_shape {
        }
        int_val: 1
      }
    }
  }
}
node {
  name: "Train/Model/lstm/multi_rnn_cell_3/cell_1/basic_lstm_cell/basic_lstm_cell/concat"
  op: "ConcatV2"
  input: "Train/Model/lstm/multi_rnn_cell_3/cell_0/basic_lstm_cell/mul_2"
  input: "Train/Model/lstm/multi_rnn_cell_2/cell_1/basic_lstm_cell/mul_2"
  input: "Train/Model/lstm/multi_rnn_cell_3/cell_1/basic_lstm_cell/basic_lstm_cell/concat/axis"
  attr {
    key: "N"
    value {
      i: 2
    }
  }
  attr {
    key: "T"
    value {
      type: DT_FLOAT
    }
  }
  attr {
    key: "Tidx"
    value {
      type: DT_INT32
    }
  }
  attr {
    key: "_output_shapes"
    value {
      list {
        shape {
          dim {
            size: 128
          }
          dim {
            size: 512
          }
        }
      }
    }
  }
}
node {
  name: "Train/Model/lstm/multi_rnn_cell_3/cell_1/basic_lstm_cell/basic_lstm_cell/MatMul"
  op: "MatMul"
  input: "Train/Model/lstm/multi_rnn_cell_3/cell_1/basic_lstm_cell/basic_lstm_cell/concat"
  input: "Model/lstm/multi_rnn_cell/cell_1/basic_lstm_cell/weights/read"
  attr {
    key: "T"
    value {
      type: DT_FLOAT
    }
  }
  attr {
    key: "_output_shapes"
    value {
      list {
        shape {
          dim {
            size: 128
          }
          dim {
            size: 1024
          }
        }
      }
    }
  }
  attr {
    key: "transpose_a"
    value {
      b: false
    }
  }
  attr {
    key: "transpose_b"
    value {
      b: false
    }
  }
}
node {
  name: "Train/Model/lstm/multi_rnn_cell_3/cell_1/basic_lstm_cell/BiasAdd"
  op: "BiasAdd"
  input: "Train/Model/lstm/multi_rnn_cell_3/cell_1/basic_lstm_cell/basic_lstm_cell/MatMul"
  input: "Model/lstm/multi_rnn_cell/cell_1/basic_lstm_cell/biases/read"
  attr {
    key: "T"
    value {
      type: DT_FLOAT
    }
  }
  attr {
    key: "_output_shapes"
    value {
      list {
        shape {
          dim {
            size: 128
          }
          dim {
            size: 1024
          }
        }
      }
    }
  }
  attr {
    key: "data_format"
    value {
      s: "NHWC"
    }
  }
}
node {
  name: "Train/Model/lstm/multi_rnn_cell_3/cell_1/basic_lstm_cell/split/split_dim"
  op: "Const"
  attr {
    key: "_output_shapes"
    value {
      list {
        shape {
        }
      }
    }
  }
  attr {
    key: "dtype"
    value {
      type: DT_INT32
    }
  }
  attr {
    key: "value"
    value {
      tensor {
        dtype: DT_INT32
        tensor_shape {
        }
        int_val: 1
      }
    }
  }
}
node {
  name: "Train/Model/lstm/multi_rnn_cell_3/cell_1/basic_lstm_cell/split"
  op: "Split"
  input: "Train/Model/lstm/multi_rnn_cell_3/cell_1/basic_lstm_cell/split/split_dim"
  input: "Train/Model/lstm/multi_rnn_cell_3/cell_1/basic_lstm_cell/BiasAdd"
  attr {
    key: "T"
    value {
      type: DT_FLOAT
    }
  }
  attr {
    key: "_output_shapes"
    value {
      list {
        shape {
          dim {
            size: 128
          }
          dim {
            size: 256
          }
        }
        shape {
          dim {
            size: 128
          }
          dim {
            size: 256
          }
        }
        shape {
          dim {
            size: 128
          }
          dim {
            size: 256
          }
        }
        shape {
          dim {
            size: 128
          }
          dim {
            size: 256
          }
        }
      }
    }
  }
  attr {
    key: "num_split"
    value {
      i: 4
    }
  }
}
node {
  name: "Train/Model/lstm/multi_rnn_cell_3/cell_1/basic_lstm_cell/add/y"
  op: "Const"
  attr {
    key: "_output_shapes"
    value {
      list {
        shape {
        }
      }
    }
  }
  attr {
    key: "dtype"
    value {
      type: DT_FLOAT
    }
  }
  attr {
    key: "value"
    value {
      tensor {
        dtype: DT_FLOAT
        tensor_shape {
        }
        float_val: 0.0
      }
    }
  }
}
node {
  name: "Train/Model/lstm/multi_rnn_cell_3/cell_1/basic_lstm_cell/add"
  op: "Add"
  input: "Train/Model/lstm/multi_rnn_cell_3/cell_1/basic_lstm_cell/split:2"
  input: "Train/Model/lstm/multi_rnn_cell_3/cell_1/basic_lstm_cell/add/y"
  attr {
    key: "T"
    value {
      type: DT_FLOAT
    }
  }
  attr {
    key: "_output_shapes"
    value {
      list {
        shape {
          dim {
            size: 128
          }
          dim {
            size: 256
          }
        }
      }
    }
  }
}
node {
  name: "Train/Model/lstm/multi_rnn_cell_3/cell_1/basic_lstm_cell/Sigmoid"
  op: "Sigmoid"
  input: "Train/Model/lstm/multi_rnn_cell_3/cell_1/basic_lstm_cell/add"
  attr {
    key: "T"
    value {
      type: DT_FLOAT
    }
  }
  attr {
    key: "_output_shapes"
    value {
      list {
        shape {
          dim {
            size: 128
          }
          dim {
            size: 256
          }
        }
      }
    }
  }
}
node {
  name: "Train/Model/lstm/multi_rnn_cell_3/cell_1/basic_lstm_cell/mul"
  op: "Mul"
  input: "Train/Model/lstm/multi_rnn_cell_2/cell_1/basic_lstm_cell/add_1"
  input: "Train/Model/lstm/multi_rnn_cell_3/cell_1/basic_lstm_cell/Sigmoid"
  attr {
    key: "T"
    value {
      type: DT_FLOAT
    }
  }
  attr {
    key: "_output_shapes"
    value {
      list {
        shape {
          dim {
            size: 128
          }
          dim {
            size: 256
          }
        }
      }
    }
  }
}
node {
  name: "Train/Model/lstm/multi_rnn_cell_3/cell_1/basic_lstm_cell/Sigmoid_1"
  op: "Sigmoid"
  input: "Train/Model/lstm/multi_rnn_cell_3/cell_1/basic_lstm_cell/split"
  attr {
    key: "T"
    value {
      type: DT_FLOAT
    }
  }
  attr {
    key: "_output_shapes"
    value {
      list {
        shape {
          dim {
            size: 128
          }
          dim {
            size: 256
          }
        }
      }
    }
  }
}
node {
  name: "Train/Model/lstm/multi_rnn_cell_3/cell_1/basic_lstm_cell/Tanh"
  op: "Tanh"
  input: "Train/Model/lstm/multi_rnn_cell_3/cell_1/basic_lstm_cell/split:1"
  attr {
    key: "T"
    value {
      type: DT_FLOAT
    }
  }
  attr {
    key: "_output_shapes"
    value {
      list {
        shape {
          dim {
            size: 128
          }
          dim {
            size: 256
          }
        }
      }
    }
  }
}
node {
  name: "Train/Model/lstm/multi_rnn_cell_3/cell_1/basic_lstm_cell/mul_1"
  op: "Mul"
  input: "Train/Model/lstm/multi_rnn_cell_3/cell_1/basic_lstm_cell/Sigmoid_1"
  input: "Train/Model/lstm/multi_rnn_cell_3/cell_1/basic_lstm_cell/Tanh"
  attr {
    key: "T"
    value {
      type: DT_FLOAT
    }
  }
  attr {
    key: "_output_shapes"
    value {
      list {
        shape {
          dim {
            size: 128
          }
          dim {
            size: 256
          }
        }
      }
    }
  }
}
node {
  name: "Train/Model/lstm/multi_rnn_cell_3/cell_1/basic_lstm_cell/add_1"
  op: "Add"
  input: "Train/Model/lstm/multi_rnn_cell_3/cell_1/basic_lstm_cell/mul"
  input: "Train/Model/lstm/multi_rnn_cell_3/cell_1/basic_lstm_cell/mul_1"
  attr {
    key: "T"
    value {
      type: DT_FLOAT
    }
  }
  attr {
    key: "_output_shapes"
    value {
      list {
        shape {
          dim {
            size: 128
          }
          dim {
            size: 256
          }
        }
      }
    }
  }
}
node {
  name: "Train/Model/lstm/multi_rnn_cell_3/cell_1/basic_lstm_cell/Tanh_1"
  op: "Tanh"
  input: "Train/Model/lstm/multi_rnn_cell_3/cell_1/basic_lstm_cell/add_1"
  attr {
    key: "T"
    value {
      type: DT_FLOAT
    }
  }
  attr {
    key: "_output_shapes"
    value {
      list {
        shape {
          dim {
            size: 128
          }
          dim {
            size: 256
          }
        }
      }
    }
  }
}
node {
  name: "Train/Model/lstm/multi_rnn_cell_3/cell_1/basic_lstm_cell/Sigmoid_2"
  op: "Sigmoid"
  input: "Train/Model/lstm/multi_rnn_cell_3/cell_1/basic_lstm_cell/split:3"
  attr {
    key: "T"
    value {
      type: DT_FLOAT
    }
  }
  attr {
    key: "_output_shapes"
    value {
      list {
        shape {
          dim {
            size: 128
          }
          dim {
            size: 256
          }
        }
      }
    }
  }
}
node {
  name: "Train/Model/lstm/multi_rnn_cell_3/cell_1/basic_lstm_cell/mul_2"
  op: "Mul"
  input: "Train/Model/lstm/multi_rnn_cell_3/cell_1/basic_lstm_cell/Tanh_1"
  input: "Train/Model/lstm/multi_rnn_cell_3/cell_1/basic_lstm_cell/Sigmoid_2"
  attr {
    key: "T"
    value {
      type: DT_FLOAT
    }
  }
  attr {
    key: "_output_shapes"
    value {
      list {
        shape {
          dim {
            size: 128
          }
          dim {
            size: 256
          }
        }
      }
    }
  }
}
node {
  name: "Train/Model/lstm/strided_slice_4/stack"
  op: "Const"
  attr {
    key: "_output_shapes"
    value {
      list {
        shape {
          dim {
            size: 3
          }
        }
      }
    }
  }
  attr {
    key: "dtype"
    value {
      type: DT_INT32
    }
  }
  attr {
    key: "value"
    value {
      tensor {
        dtype: DT_INT32
        tensor_shape {
          dim {
            size: 3
          }
        }
        tensor_content: "\000\000\000\000\004\000\000\000\000\000\000\000"
      }
    }
  }
}
node {
  name: "Train/Model/lstm/strided_slice_4/stack_1"
  op: "Const"
  attr {
    key: "_output_shapes"
    value {
      list {
        shape {
          dim {
            size: 3
          }
        }
      }
    }
  }
  attr {
    key: "dtype"
    value {
      type: DT_INT32
    }
  }
  attr {
    key: "value"
    value {
      tensor {
        dtype: DT_INT32
        tensor_shape {
          dim {
            size: 3
          }
        }
        tensor_content: "\000\000\000\000\005\000\000\000\000\000\000\000"
      }
    }
  }
}
node {
  name: "Train/Model/lstm/strided_slice_4/stack_2"
  op: "Const"
  attr {
    key: "_output_shapes"
    value {
      list {
        shape {
          dim {
            size: 3
          }
        }
      }
    }
  }
  attr {
    key: "dtype"
    value {
      type: DT_INT32
    }
  }
  attr {
    key: "value"
    value {
      tensor {
        dtype: DT_INT32
        tensor_shape {
          dim {
            size: 3
          }
        }
        tensor_content: "\001\000\000\000\001\000\000\000\001\000\000\000"
      }
    }
  }
}
node {
  name: "Train/Model/lstm/strided_slice_4"
  op: "StridedSlice"
  input: "Train/Model/embedding_lookup"
  input: "Train/Model/lstm/strided_slice_4/stack"
  input: "Train/Model/lstm/strided_slice_4/stack_1"
  input: "Train/Model/lstm/strided_slice_4/stack_2"
  attr {
    key: "Index"
    value {
      type: DT_INT32
    }
  }
  attr {
    key: "T"
    value {
      type: DT_FLOAT
    }
  }
  attr {
    key: "_output_shapes"
    value {
      list {
        shape {
          dim {
            size: -1
          }
          dim {
            size: 256
          }
        }
      }
    }
  }
  attr {
    key: "begin_mask"
    value {
      i: 5
    }
  }
  attr {
    key: "ellipsis_mask"
    value {
      i: 0
    }
  }
  attr {
    key: "end_mask"
    value {
      i: 5
    }
  }
  attr {
    key: "new_axis_mask"
    value {
      i: 0
    }
  }
  attr {
    key: "shrink_axis_mask"
    value {
      i: 2
    }
  }
}
node {
  name: "Train/Model/lstm/multi_rnn_cell_4/cell_0/basic_lstm_cell/basic_lstm_cell/concat/axis"
  op: "Const"
  attr {
    key: "_output_shapes"
    value {
      list {
        shape {
        }
      }
    }
  }
  attr {
    key: "dtype"
    value {
      type: DT_INT32
    }
  }
  attr {
    key: "value"
    value {
      tensor {
        dtype: DT_INT32
        tensor_shape {
        }
        int_val: 1
      }
    }
  }
}
node {
  name: "Train/Model/lstm/multi_rnn_cell_4/cell_0/basic_lstm_cell/basic_lstm_cell/concat"
  op: "ConcatV2"
  input: "Train/Model/lstm/strided_slice_4"
  input: "Train/Model/lstm/multi_rnn_cell_3/cell_0/basic_lstm_cell/mul_2"
  input: "Train/Model/lstm/multi_rnn_cell_4/cell_0/basic_lstm_cell/basic_lstm_cell/concat/axis"
  attr {
    key: "N"
    value {
      i: 2
    }
  }
  attr {
    key: "T"
    value {
      type: DT_FLOAT
    }
  }
  attr {
    key: "Tidx"
    value {
      type: DT_INT32
    }
  }
  attr {
    key: "_output_shapes"
    value {
      list {
        shape {
          dim {
            size: 128
          }
          dim {
            size: 512
          }
        }
      }
    }
  }
}
node {
  name: "Train/Model/lstm/multi_rnn_cell_4/cell_0/basic_lstm_cell/basic_lstm_cell/MatMul"
  op: "MatMul"
  input: "Train/Model/lstm/multi_rnn_cell_4/cell_0/basic_lstm_cell/basic_lstm_cell/concat"
  input: "Model/lstm/multi_rnn_cell/cell_0/basic_lstm_cell/weights/read"
  attr {
    key: "T"
    value {
      type: DT_FLOAT
    }
  }
  attr {
    key: "_output_shapes"
    value {
      list {
        shape {
          dim {
            size: 128
          }
          dim {
            size: 1024
          }
        }
      }
    }
  }
  attr {
    key: "transpose_a"
    value {
      b: false
    }
  }
  attr {
    key: "transpose_b"
    value {
      b: false
    }
  }
}
node {
  name: "Train/Model/lstm/multi_rnn_cell_4/cell_0/basic_lstm_cell/BiasAdd"
  op: "BiasAdd"
  input: "Train/Model/lstm/multi_rnn_cell_4/cell_0/basic_lstm_cell/basic_lstm_cell/MatMul"
  input: "Model/lstm/multi_rnn_cell/cell_0/basic_lstm_cell/biases/read"
  attr {
    key: "T"
    value {
      type: DT_FLOAT
    }
  }
  attr {
    key: "_output_shapes"
    value {
      list {
        shape {
          dim {
            size: 128
          }
          dim {
            size: 1024
          }
        }
      }
    }
  }
  attr {
    key: "data_format"
    value {
      s: "NHWC"
    }
  }
}
node {
  name: "Train/Model/lstm/multi_rnn_cell_4/cell_0/basic_lstm_cell/split/split_dim"
  op: "Const"
  attr {
    key: "_output_shapes"
    value {
      list {
        shape {
        }
      }
    }
  }
  attr {
    key: "dtype"
    value {
      type: DT_INT32
    }
  }
  attr {
    key: "value"
    value {
      tensor {
        dtype: DT_INT32
        tensor_shape {
        }
        int_val: 1
      }
    }
  }
}
node {
  name: "Train/Model/lstm/multi_rnn_cell_4/cell_0/basic_lstm_cell/split"
  op: "Split"
  input: "Train/Model/lstm/multi_rnn_cell_4/cell_0/basic_lstm_cell/split/split_dim"
  input: "Train/Model/lstm/multi_rnn_cell_4/cell_0/basic_lstm_cell/BiasAdd"
  attr {
    key: "T"
    value {
      type: DT_FLOAT
    }
  }
  attr {
    key: "_output_shapes"
    value {
      list {
        shape {
          dim {
            size: 128
          }
          dim {
            size: 256
          }
        }
        shape {
          dim {
            size: 128
          }
          dim {
            size: 256
          }
        }
        shape {
          dim {
            size: 128
          }
          dim {
            size: 256
          }
        }
        shape {
          dim {
            size: 128
          }
          dim {
            size: 256
          }
        }
      }
    }
  }
  attr {
    key: "num_split"
    value {
      i: 4
    }
  }
}
node {
  name: "Train/Model/lstm/multi_rnn_cell_4/cell_0/basic_lstm_cell/add/y"
  op: "Const"
  attr {
    key: "_output_shapes"
    value {
      list {
        shape {
        }
      }
    }
  }
  attr {
    key: "dtype"
    value {
      type: DT_FLOAT
    }
  }
  attr {
    key: "value"
    value {
      tensor {
        dtype: DT_FLOAT
        tensor_shape {
        }
        float_val: 0.0
      }
    }
  }
}
node {
  name: "Train/Model/lstm/multi_rnn_cell_4/cell_0/basic_lstm_cell/add"
  op: "Add"
  input: "Train/Model/lstm/multi_rnn_cell_4/cell_0/basic_lstm_cell/split:2"
  input: "Train/Model/lstm/multi_rnn_cell_4/cell_0/basic_lstm_cell/add/y"
  attr {
    key: "T"
    value {
      type: DT_FLOAT
    }
  }
  attr {
    key: "_output_shapes"
    value {
      list {
        shape {
          dim {
            size: 128
          }
          dim {
            size: 256
          }
        }
      }
    }
  }
}
node {
  name: "Train/Model/lstm/multi_rnn_cell_4/cell_0/basic_lstm_cell/Sigmoid"
  op: "Sigmoid"
  input: "Train/Model/lstm/multi_rnn_cell_4/cell_0/basic_lstm_cell/add"
  attr {
    key: "T"
    value {
      type: DT_FLOAT
    }
  }
  attr {
    key: "_output_shapes"
    value {
      list {
        shape {
          dim {
            size: 128
          }
          dim {
            size: 256
          }
        }
      }
    }
  }
}
node {
  name: "Train/Model/lstm/multi_rnn_cell_4/cell_0/basic_lstm_cell/mul"
  op: "Mul"
  input: "Train/Model/lstm/multi_rnn_cell_3/cell_0/basic_lstm_cell/add_1"
  input: "Train/Model/lstm/multi_rnn_cell_4/cell_0/basic_lstm_cell/Sigmoid"
  attr {
    key: "T"
    value {
      type: DT_FLOAT
    }
  }
  attr {
    key: "_output_shapes"
    value {
      list {
        shape {
          dim {
            size: 128
          }
          dim {
            size: 256
          }
        }
      }
    }
  }
}
node {
  name: "Train/Model/lstm/multi_rnn_cell_4/cell_0/basic_lstm_cell/Sigmoid_1"
  op: "Sigmoid"
  input: "Train/Model/lstm/multi_rnn_cell_4/cell_0/basic_lstm_cell/split"
  attr {
    key: "T"
    value {
      type: DT_FLOAT
    }
  }
  attr {
    key: "_output_shapes"
    value {
      list {
        shape {
          dim {
            size: 128
          }
          dim {
            size: 256
          }
        }
      }
    }
  }
}
node {
  name: "Train/Model/lstm/multi_rnn_cell_4/cell_0/basic_lstm_cell/Tanh"
  op: "Tanh"
  input: "Train/Model/lstm/multi_rnn_cell_4/cell_0/basic_lstm_cell/split:1"
  attr {
    key: "T"
    value {
      type: DT_FLOAT
    }
  }
  attr {
    key: "_output_shapes"
    value {
      list {
        shape {
          dim {
            size: 128
          }
          dim {
            size: 256
          }
        }
      }
    }
  }
}
node {
  name: "Train/Model/lstm/multi_rnn_cell_4/cell_0/basic_lstm_cell/mul_1"
  op: "Mul"
  input: "Train/Model/lstm/multi_rnn_cell_4/cell_0/basic_lstm_cell/Sigmoid_1"
  input: "Train/Model/lstm/multi_rnn_cell_4/cell_0/basic_lstm_cell/Tanh"
  attr {
    key: "T"
    value {
      type: DT_FLOAT
    }
  }
  attr {
    key: "_output_shapes"
    value {
      list {
        shape {
          dim {
            size: 128
          }
          dim {
            size: 256
          }
        }
      }
    }
  }
}
node {
  name: "Train/Model/lstm/multi_rnn_cell_4/cell_0/basic_lstm_cell/add_1"
  op: "Add"
  input: "Train/Model/lstm/multi_rnn_cell_4/cell_0/basic_lstm_cell/mul"
  input: "Train/Model/lstm/multi_rnn_cell_4/cell_0/basic_lstm_cell/mul_1"
  attr {
    key: "T"
    value {
      type: DT_FLOAT
    }
  }
  attr {
    key: "_output_shapes"
    value {
      list {
        shape {
          dim {
            size: 128
          }
          dim {
            size: 256
          }
        }
      }
    }
  }
}
node {
  name: "Train/Model/lstm/multi_rnn_cell_4/cell_0/basic_lstm_cell/Tanh_1"
  op: "Tanh"
  input: "Train/Model/lstm/multi_rnn_cell_4/cell_0/basic_lstm_cell/add_1"
  attr {
    key: "T"
    value {
      type: DT_FLOAT
    }
  }
  attr {
    key: "_output_shapes"
    value {
      list {
        shape {
          dim {
            size: 128
          }
          dim {
            size: 256
          }
        }
      }
    }
  }
}
node {
  name: "Train/Model/lstm/multi_rnn_cell_4/cell_0/basic_lstm_cell/Sigmoid_2"
  op: "Sigmoid"
  input: "Train/Model/lstm/multi_rnn_cell_4/cell_0/basic_lstm_cell/split:3"
  attr {
    key: "T"
    value {
      type: DT_FLOAT
    }
  }
  attr {
    key: "_output_shapes"
    value {
      list {
        shape {
          dim {
            size: 128
          }
          dim {
            size: 256
          }
        }
      }
    }
  }
}
node {
  name: "Train/Model/lstm/multi_rnn_cell_4/cell_0/basic_lstm_cell/mul_2"
  op: "Mul"
  input: "Train/Model/lstm/multi_rnn_cell_4/cell_0/basic_lstm_cell/Tanh_1"
  input: "Train/Model/lstm/multi_rnn_cell_4/cell_0/basic_lstm_cell/Sigmoid_2"
  attr {
    key: "T"
    value {
      type: DT_FLOAT
    }
  }
  attr {
    key: "_output_shapes"
    value {
      list {
        shape {
          dim {
            size: 128
          }
          dim {
            size: 256
          }
        }
      }
    }
  }
}
node {
  name: "Train/Model/lstm/multi_rnn_cell_4/cell_1/basic_lstm_cell/basic_lstm_cell/concat/axis"
  op: "Const"
  attr {
    key: "_output_shapes"
    value {
      list {
        shape {
        }
      }
    }
  }
  attr {
    key: "dtype"
    value {
      type: DT_INT32
    }
  }
  attr {
    key: "value"
    value {
      tensor {
        dtype: DT_INT32
        tensor_shape {
        }
        int_val: 1
      }
    }
  }
}
node {
  name: "Train/Model/lstm/multi_rnn_cell_4/cell_1/basic_lstm_cell/basic_lstm_cell/concat"
  op: "ConcatV2"
  input: "Train/Model/lstm/multi_rnn_cell_4/cell_0/basic_lstm_cell/mul_2"
  input: "Train/Model/lstm/multi_rnn_cell_3/cell_1/basic_lstm_cell/mul_2"
  input: "Train/Model/lstm/multi_rnn_cell_4/cell_1/basic_lstm_cell/basic_lstm_cell/concat/axis"
  attr {
    key: "N"
    value {
      i: 2
    }
  }
  attr {
    key: "T"
    value {
      type: DT_FLOAT
    }
  }
  attr {
    key: "Tidx"
    value {
      type: DT_INT32
    }
  }
  attr {
    key: "_output_shapes"
    value {
      list {
        shape {
          dim {
            size: 128
          }
          dim {
            size: 512
          }
        }
      }
    }
  }
}
node {
  name: "Train/Model/lstm/multi_rnn_cell_4/cell_1/basic_lstm_cell/basic_lstm_cell/MatMul"
  op: "MatMul"
  input: "Train/Model/lstm/multi_rnn_cell_4/cell_1/basic_lstm_cell/basic_lstm_cell/concat"
  input: "Model/lstm/multi_rnn_cell/cell_1/basic_lstm_cell/weights/read"
  attr {
    key: "T"
    value {
      type: DT_FLOAT
    }
  }
  attr {
    key: "_output_shapes"
    value {
      list {
        shape {
          dim {
            size: 128
          }
          dim {
            size: 1024
          }
        }
      }
    }
  }
  attr {
    key: "transpose_a"
    value {
      b: false
    }
  }
  attr {
    key: "transpose_b"
    value {
      b: false
    }
  }
}
node {
  name: "Train/Model/lstm/multi_rnn_cell_4/cell_1/basic_lstm_cell/BiasAdd"
  op: "BiasAdd"
  input: "Train/Model/lstm/multi_rnn_cell_4/cell_1/basic_lstm_cell/basic_lstm_cell/MatMul"
  input: "Model/lstm/multi_rnn_cell/cell_1/basic_lstm_cell/biases/read"
  attr {
    key: "T"
    value {
      type: DT_FLOAT
    }
  }
  attr {
    key: "_output_shapes"
    value {
      list {
        shape {
          dim {
            size: 128
          }
          dim {
            size: 1024
          }
        }
      }
    }
  }
  attr {
    key: "data_format"
    value {
      s: "NHWC"
    }
  }
}
node {
  name: "Train/Model/lstm/multi_rnn_cell_4/cell_1/basic_lstm_cell/split/split_dim"
  op: "Const"
  attr {
    key: "_output_shapes"
    value {
      list {
        shape {
        }
      }
    }
  }
  attr {
    key: "dtype"
    value {
      type: DT_INT32
    }
  }
  attr {
    key: "value"
    value {
      tensor {
        dtype: DT_INT32
        tensor_shape {
        }
        int_val: 1
      }
    }
  }
}
node {
  name: "Train/Model/lstm/multi_rnn_cell_4/cell_1/basic_lstm_cell/split"
  op: "Split"
  input: "Train/Model/lstm/multi_rnn_cell_4/cell_1/basic_lstm_cell/split/split_dim"
  input: "Train/Model/lstm/multi_rnn_cell_4/cell_1/basic_lstm_cell/BiasAdd"
  attr {
    key: "T"
    value {
      type: DT_FLOAT
    }
  }
  attr {
    key: "_output_shapes"
    value {
      list {
        shape {
          dim {
            size: 128
          }
          dim {
            size: 256
          }
        }
        shape {
          dim {
            size: 128
          }
          dim {
            size: 256
          }
        }
        shape {
          dim {
            size: 128
          }
          dim {
            size: 256
          }
        }
        shape {
          dim {
            size: 128
          }
          dim {
            size: 256
          }
        }
      }
    }
  }
  attr {
    key: "num_split"
    value {
      i: 4
    }
  }
}
node {
  name: "Train/Model/lstm/multi_rnn_cell_4/cell_1/basic_lstm_cell/add/y"
  op: "Const"
  attr {
    key: "_output_shapes"
    value {
      list {
        shape {
        }
      }
    }
  }
  attr {
    key: "dtype"
    value {
      type: DT_FLOAT
    }
  }
  attr {
    key: "value"
    value {
      tensor {
        dtype: DT_FLOAT
        tensor_shape {
        }
        float_val: 0.0
      }
    }
  }
}
node {
  name: "Train/Model/lstm/multi_rnn_cell_4/cell_1/basic_lstm_cell/add"
  op: "Add"
  input: "Train/Model/lstm/multi_rnn_cell_4/cell_1/basic_lstm_cell/split:2"
  input: "Train/Model/lstm/multi_rnn_cell_4/cell_1/basic_lstm_cell/add/y"
  attr {
    key: "T"
    value {
      type: DT_FLOAT
    }
  }
  attr {
    key: "_output_shapes"
    value {
      list {
        shape {
          dim {
            size: 128
          }
          dim {
            size: 256
          }
        }
      }
    }
  }
}
node {
  name: "Train/Model/lstm/multi_rnn_cell_4/cell_1/basic_lstm_cell/Sigmoid"
  op: "Sigmoid"
  input: "Train/Model/lstm/multi_rnn_cell_4/cell_1/basic_lstm_cell/add"
  attr {
    key: "T"
    value {
      type: DT_FLOAT
    }
  }
  attr {
    key: "_output_shapes"
    value {
      list {
        shape {
          dim {
            size: 128
          }
          dim {
            size: 256
          }
        }
      }
    }
  }
}
node {
  name: "Train/Model/lstm/multi_rnn_cell_4/cell_1/basic_lstm_cell/mul"
  op: "Mul"
  input: "Train/Model/lstm/multi_rnn_cell_3/cell_1/basic_lstm_cell/add_1"
  input: "Train/Model/lstm/multi_rnn_cell_4/cell_1/basic_lstm_cell/Sigmoid"
  attr {
    key: "T"
    value {
      type: DT_FLOAT
    }
  }
  attr {
    key: "_output_shapes"
    value {
      list {
        shape {
          dim {
            size: 128
          }
          dim {
            size: 256
          }
        }
      }
    }
  }
}
node {
  name: "Train/Model/lstm/multi_rnn_cell_4/cell_1/basic_lstm_cell/Sigmoid_1"
  op: "Sigmoid"
  input: "Train/Model/lstm/multi_rnn_cell_4/cell_1/basic_lstm_cell/split"
  attr {
    key: "T"
    value {
      type: DT_FLOAT
    }
  }
  attr {
    key: "_output_shapes"
    value {
      list {
        shape {
          dim {
            size: 128
          }
          dim {
            size: 256
          }
        }
      }
    }
  }
}
node {
  name: "Train/Model/lstm/multi_rnn_cell_4/cell_1/basic_lstm_cell/Tanh"
  op: "Tanh"
  input: "Train/Model/lstm/multi_rnn_cell_4/cell_1/basic_lstm_cell/split:1"
  attr {
    key: "T"
    value {
      type: DT_FLOAT
    }
  }
  attr {
    key: "_output_shapes"
    value {
      list {
        shape {
          dim {
            size: 128
          }
          dim {
            size: 256
          }
        }
      }
    }
  }
}
node {
  name: "Train/Model/lstm/multi_rnn_cell_4/cell_1/basic_lstm_cell/mul_1"
  op: "Mul"
  input: "Train/Model/lstm/multi_rnn_cell_4/cell_1/basic_lstm_cell/Sigmoid_1"
  input: "Train/Model/lstm/multi_rnn_cell_4/cell_1/basic_lstm_cell/Tanh"
  attr {
    key: "T"
    value {
      type: DT_FLOAT
    }
  }
  attr {
    key: "_output_shapes"
    value {
      list {
        shape {
          dim {
            size: 128
          }
          dim {
            size: 256
          }
        }
      }
    }
  }
}
node {
  name: "Train/Model/lstm/multi_rnn_cell_4/cell_1/basic_lstm_cell/add_1"
  op: "Add"
  input: "Train/Model/lstm/multi_rnn_cell_4/cell_1/basic_lstm_cell/mul"
  input: "Train/Model/lstm/multi_rnn_cell_4/cell_1/basic_lstm_cell/mul_1"
  attr {
    key: "T"
    value {
      type: DT_FLOAT
    }
  }
  attr {
    key: "_output_shapes"
    value {
      list {
        shape {
          dim {
            size: 128
          }
          dim {
            size: 256
          }
        }
      }
    }
  }
}
node {
  name: "Train/Model/lstm/multi_rnn_cell_4/cell_1/basic_lstm_cell/Tanh_1"
  op: "Tanh"
  input: "Train/Model/lstm/multi_rnn_cell_4/cell_1/basic_lstm_cell/add_1"
  attr {
    key: "T"
    value {
      type: DT_FLOAT
    }
  }
  attr {
    key: "_output_shapes"
    value {
      list {
        shape {
          dim {
            size: 128
          }
          dim {
            size: 256
          }
        }
      }
    }
  }
}
node {
  name: "Train/Model/lstm/multi_rnn_cell_4/cell_1/basic_lstm_cell/Sigmoid_2"
  op: "Sigmoid"
  input: "Train/Model/lstm/multi_rnn_cell_4/cell_1/basic_lstm_cell/split:3"
  attr {
    key: "T"
    value {
      type: DT_FLOAT
    }
  }
  attr {
    key: "_output_shapes"
    value {
      list {
        shape {
          dim {
            size: 128
          }
          dim {
            size: 256
          }
        }
      }
    }
  }
}
node {
  name: "Train/Model/lstm/multi_rnn_cell_4/cell_1/basic_lstm_cell/mul_2"
  op: "Mul"
  input: "Train/Model/lstm/multi_rnn_cell_4/cell_1/basic_lstm_cell/Tanh_1"
  input: "Train/Model/lstm/multi_rnn_cell_4/cell_1/basic_lstm_cell/Sigmoid_2"
  attr {
    key: "T"
    value {
      type: DT_FLOAT
    }
  }
  attr {
    key: "_output_shapes"
    value {
      list {
        shape {
          dim {
            size: 128
          }
          dim {
            size: 256
          }
        }
      }
    }
  }
}
node {
  name: "Train/Model/lstm/concat/axis"
  op: "Const"
  attr {
    key: "_output_shapes"
    value {
      list {
        shape {
        }
      }
    }
  }
  attr {
    key: "dtype"
    value {
      type: DT_INT32
    }
  }
  attr {
    key: "value"
    value {
      tensor {
        dtype: DT_INT32
        tensor_shape {
        }
        int_val: 1
      }
    }
  }
}
node {
  name: "Train/Model/lstm/concat"
  op: "ConcatV2"
  input: "Train/Model/lstm/multi_rnn_cell/cell_1/basic_lstm_cell/mul_2"
  input: "Train/Model/lstm/multi_rnn_cell_1/cell_1/basic_lstm_cell/mul_2"
  input: "Train/Model/lstm/multi_rnn_cell_2/cell_1/basic_lstm_cell/mul_2"
  input: "Train/Model/lstm/multi_rnn_cell_3/cell_1/basic_lstm_cell/mul_2"
  input: "Train/Model/lstm/multi_rnn_cell_4/cell_1/basic_lstm_cell/mul_2"
  input: "Train/Model/lstm/concat/axis"
  attr {
    key: "N"
    value {
      i: 5
    }
  }
  attr {
    key: "T"
    value {
      type: DT_FLOAT
    }
  }
  attr {
    key: "Tidx"
    value {
      type: DT_INT32
    }
  }
  attr {
    key: "_output_shapes"
    value {
      list {
        shape {
          dim {
            size: 128
          }
          dim {
            size: 1280
          }
        }
      }
    }
  }
}
node {
  name: "Train/Model/lstm/Reshape/shape"
  op: "Const"
  attr {
    key: "_output_shapes"
    value {
      list {
        shape {
          dim {
            size: 2
          }
        }
      }
    }
  }
  attr {
    key: "dtype"
    value {
      type: DT_INT32
    }
  }
  attr {
    key: "value"
    value {
      tensor {
        dtype: DT_INT32
        tensor_shape {
          dim {
            size: 2
          }
        }
        tensor_content: "\377\377\377\377\000\001\000\000"
      }
    }
  }
}
node {
  name: "Train/Model/lstm/Reshape"
  op: "Reshape"
  input: "Train/Model/lstm/concat"
  input: "Train/Model/lstm/Reshape/shape"
  attr {
    key: "T"
    value {
      type: DT_FLOAT
    }
  }
  attr {
    key: "Tshape"
    value {
      type: DT_INT32
    }
  }
  attr {
    key: "_output_shapes"
    value {
      list {
        shape {
          dim {
            size: 640
          }
          dim {
            size: 256
          }
        }
      }
    }
  }
}
node {
  name: "Model/softmax_weights/Initializer/random_uniform/shape"
  op: "Const"
  attr {
    key: "_class"
    value {
      list {
        s: "loc:@Model/softmax_weights"
      }
    }
  }
  attr {
    key: "_output_shapes"
    value {
      list {
        shape {
          dim {
            size: 2
          }
        }
      }
    }
  }
  attr {
    key: "dtype"
    value {
      type: DT_INT32
    }
  }
  attr {
    key: "value"
    value {
      tensor {
        dtype: DT_INT32
        tensor_shape {
          dim {
            size: 2
          }
        }
        tensor_content: "\000\001\000\000\340.\000\000"
      }
    }
  }
}
node {
  name: "Model/softmax_weights/Initializer/random_uniform/min"
  op: "Const"
  attr {
    key: "_class"
    value {
      list {
        s: "loc:@Model/softmax_weights"
      }
    }
  }
  attr {
    key: "_output_shapes"
    value {
      list {
        shape {
        }
      }
    }
  }
  attr {
    key: "dtype"
    value {
      type: DT_FLOAT
    }
  }
  attr {
    key: "value"
    value {
      tensor {
        dtype: DT_FLOAT
        tensor_shape {
        }
        float_val: -0.10000000149
      }
    }
  }
}
node {
  name: "Model/softmax_weights/Initializer/random_uniform/max"
  op: "Const"
  attr {
    key: "_class"
    value {
      list {
        s: "loc:@Model/softmax_weights"
      }
    }
  }
  attr {
    key: "_output_shapes"
    value {
      list {
        shape {
        }
      }
    }
  }
  attr {
    key: "dtype"
    value {
      type: DT_FLOAT
    }
  }
  attr {
    key: "value"
    value {
      tensor {
        dtype: DT_FLOAT
        tensor_shape {
        }
        float_val: 0.10000000149
      }
    }
  }
}
node {
  name: "Model/softmax_weights/Initializer/random_uniform/RandomUniform"
  op: "RandomUniform"
  input: "Model/softmax_weights/Initializer/random_uniform/shape"
  attr {
    key: "T"
    value {
      type: DT_INT32
    }
  }
  attr {
    key: "_class"
    value {
      list {
        s: "loc:@Model/softmax_weights"
      }
    }
  }
  attr {
    key: "_output_shapes"
    value {
      list {
        shape {
          dim {
            size: 256
          }
          dim {
            size: 12000
          }
        }
      }
    }
  }
  attr {
    key: "dtype"
    value {
      type: DT_FLOAT
    }
  }
  attr {
    key: "seed"
    value {
      i: 87654321
    }
  }
  attr {
    key: "seed2"
    value {
      i: 1234
    }
  }
}
node {
  name: "Model/softmax_weights/Initializer/random_uniform/sub"
  op: "Sub"
  input: "Model/softmax_weights/Initializer/random_uniform/max"
  input: "Model/softmax_weights/Initializer/random_uniform/min"
  attr {
    key: "T"
    value {
      type: DT_FLOAT
    }
  }
  attr {
    key: "_class"
    value {
      list {
        s: "loc:@Model/softmax_weights"
      }
    }
  }
  attr {
    key: "_output_shapes"
    value {
      list {
        shape {
        }
      }
    }
  }
}
node {
  name: "Model/softmax_weights/Initializer/random_uniform/mul"
  op: "Mul"
  input: "Model/softmax_weights/Initializer/random_uniform/RandomUniform"
  input: "Model/softmax_weights/Initializer/random_uniform/sub"
  attr {
    key: "T"
    value {
      type: DT_FLOAT
    }
  }
  attr {
    key: "_class"
    value {
      list {
        s: "loc:@Model/softmax_weights"
      }
    }
  }
  attr {
    key: "_output_shapes"
    value {
      list {
        shape {
          dim {
            size: 256
          }
          dim {
            size: 12000
          }
        }
      }
    }
  }
}
node {
  name: "Model/softmax_weights/Initializer/random_uniform"
  op: "Add"
  input: "Model/softmax_weights/Initializer/random_uniform/mul"
  input: "Model/softmax_weights/Initializer/random_uniform/min"
  attr {
    key: "T"
    value {
      type: DT_FLOAT
    }
  }
  attr {
    key: "_class"
    value {
      list {
        s: "loc:@Model/softmax_weights"
      }
    }
  }
  attr {
    key: "_output_shapes"
    value {
      list {
        shape {
          dim {
            size: 256
          }
          dim {
            size: 12000
          }
        }
      }
    }
  }
}
node {
  name: "Model/softmax_weights"
  op: "VariableV2"
  attr {
    key: "_class"
    value {
      list {
        s: "loc:@Model/softmax_weights"
      }
    }
  }
  attr {
    key: "_output_shapes"
    value {
      list {
        shape {
          dim {
            size: 256
          }
          dim {
            size: 12000
          }
        }
      }
    }
  }
  attr {
    key: "container"
    value {
      s: ""
    }
  }
  attr {
    key: "dtype"
    value {
      type: DT_FLOAT
    }
  }
  attr {
    key: "shape"
    value {
      shape {
        dim {
          size: 256
        }
        dim {
          size: 12000
        }
      }
    }
  }
  attr {
    key: "shared_name"
    value {
      s: ""
    }
  }
}
node {
  name: "Model/softmax_weights/Assign"
  op: "Assign"
  input: "Model/softmax_weights"
  input: "Model/softmax_weights/Initializer/random_uniform"
  attr {
    key: "T"
    value {
      type: DT_FLOAT
    }
  }
  attr {
    key: "_class"
    value {
      list {
        s: "loc:@Model/softmax_weights"
      }
    }
  }
  attr {
    key: "_output_shapes"
    value {
      list {
        shape {
          dim {
            size: 256
          }
          dim {
            size: 12000
          }
        }
      }
    }
  }
  attr {
    key: "use_locking"
    value {
      b: true
    }
  }
  attr {
    key: "validate_shape"
    value {
      b: true
    }
  }
}
node {
  name: "Model/softmax_weights/read"
  op: "Identity"
  input: "Model/softmax_weights"
  attr {
    key: "T"
    value {
      type: DT_FLOAT
    }
  }
  attr {
    key: "_class"
    value {
      list {
        s: "loc:@Model/softmax_weights"
      }
    }
  }
  attr {
    key: "_output_shapes"
    value {
      list {
        shape {
          dim {
            size: 256
          }
          dim {
            size: 12000
          }
        }
      }
    }
  }
}
node {
  name: "Model/softmax_biases/Initializer/random_uniform/shape"
  op: "Const"
  attr {
    key: "_class"
    value {
      list {
        s: "loc:@Model/softmax_biases"
      }
    }
  }
  attr {
    key: "_output_shapes"
    value {
      list {
        shape {
          dim {
            size: 1
          }
        }
      }
    }
  }
  attr {
    key: "dtype"
    value {
      type: DT_INT32
    }
  }
  attr {
    key: "value"
    value {
      tensor {
        dtype: DT_INT32
        tensor_shape {
          dim {
            size: 1
          }
        }
        int_val: 12000
      }
    }
  }
}
node {
  name: "Model/softmax_biases/Initializer/random_uniform/min"
  op: "Const"
  attr {
    key: "_class"
    value {
      list {
        s: "loc:@Model/softmax_biases"
      }
    }
  }
  attr {
    key: "_output_shapes"
    value {
      list {
        shape {
        }
      }
    }
  }
  attr {
    key: "dtype"
    value {
      type: DT_FLOAT
    }
  }
  attr {
    key: "value"
    value {
      tensor {
        dtype: DT_FLOAT
        tensor_shape {
        }
        float_val: -0.10000000149
      }
    }
  }
}
node {
  name: "Model/softmax_biases/Initializer/random_uniform/max"
  op: "Const"
  attr {
    key: "_class"
    value {
      list {
        s: "loc:@Model/softmax_biases"
      }
    }
  }
  attr {
    key: "_output_shapes"
    value {
      list {
        shape {
        }
      }
    }
  }
  attr {
    key: "dtype"
    value {
      type: DT_FLOAT
    }
  }
  attr {
    key: "value"
    value {
      tensor {
        dtype: DT_FLOAT
        tensor_shape {
        }
        float_val: 0.10000000149
      }
    }
  }
}
node {
  name: "Model/softmax_biases/Initializer/random_uniform/RandomUniform"
  op: "RandomUniform"
  input: "Model/softmax_biases/Initializer/random_uniform/shape"
  attr {
    key: "T"
    value {
      type: DT_INT32
    }
  }
  attr {
    key: "_class"
    value {
      list {
        s: "loc:@Model/softmax_biases"
      }
    }
  }
  attr {
    key: "_output_shapes"
    value {
      list {
        shape {
          dim {
            size: 12000
          }
        }
      }
    }
  }
  attr {
    key: "dtype"
    value {
      type: DT_FLOAT
    }
  }
  attr {
    key: "seed"
    value {
      i: 87654321
    }
  }
  attr {
    key: "seed2"
    value {
      i: 1234
    }
  }
}
node {
  name: "Model/softmax_biases/Initializer/random_uniform/sub"
  op: "Sub"
  input: "Model/softmax_biases/Initializer/random_uniform/max"
  input: "Model/softmax_biases/Initializer/random_uniform/min"
  attr {
    key: "T"
    value {
      type: DT_FLOAT
    }
  }
  attr {
    key: "_class"
    value {
      list {
        s: "loc:@Model/softmax_biases"
      }
    }
  }
  attr {
    key: "_output_shapes"
    value {
      list {
        shape {
        }
      }
    }
  }
}
node {
  name: "Model/softmax_biases/Initializer/random_uniform/mul"
  op: "Mul"
  input: "Model/softmax_biases/Initializer/random_uniform/RandomUniform"
  input: "Model/softmax_biases/Initializer/random_uniform/sub"
  attr {
    key: "T"
    value {
      type: DT_FLOAT
    }
  }
  attr {
    key: "_class"
    value {
      list {
        s: "loc:@Model/softmax_biases"
      }
    }
  }
  attr {
    key: "_output_shapes"
    value {
      list {
        shape {
          dim {
            size: 12000
          }
        }
      }
    }
  }
}
node {
  name: "Model/softmax_biases/Initializer/random_uniform"
  op: "Add"
  input: "Model/softmax_biases/Initializer/random_uniform/mul"
  input: "Model/softmax_biases/Initializer/random_uniform/min"
  attr {
    key: "T"
    value {
      type: DT_FLOAT
    }
  }
  attr {
    key: "_class"
    value {
      list {
        s: "loc:@Model/softmax_biases"
      }
    }
  }
  attr {
    key: "_output_shapes"
    value {
      list {
        shape {
          dim {
            size: 12000
          }
        }
      }
    }
  }
}
node {
  name: "Model/softmax_biases"
  op: "VariableV2"
  attr {
    key: "_class"
    value {
      list {
        s: "loc:@Model/softmax_biases"
      }
    }
  }
  attr {
    key: "_output_shapes"
    value {
      list {
        shape {
          dim {
            size: 12000
          }
        }
      }
    }
  }
  attr {
    key: "container"
    value {
      s: ""
    }
  }
  attr {
    key: "dtype"
    value {
      type: DT_FLOAT
    }
  }
  attr {
    key: "shape"
    value {
      shape {
        dim {
          size: 12000
        }
      }
    }
  }
  attr {
    key: "shared_name"
    value {
      s: ""
    }
  }
}
node {
  name: "Model/softmax_biases/Assign"
  op: "Assign"
  input: "Model/softmax_biases"
  input: "Model/softmax_biases/Initializer/random_uniform"
  attr {
    key: "T"
    value {
      type: DT_FLOAT
    }
  }
  attr {
    key: "_class"
    value {
      list {
        s: "loc:@Model/softmax_biases"
      }
    }
  }
  attr {
    key: "_output_shapes"
    value {
      list {
        shape {
          dim {
            size: 12000
          }
        }
      }
    }
  }
  attr {
    key: "use_locking"
    value {
      b: true
    }
  }
  attr {
    key: "validate_shape"
    value {
      b: true
    }
  }
}
node {
  name: "Model/softmax_biases/read"
  op: "Identity"
  input: "Model/softmax_biases"
  attr {
    key: "T"
    value {
      type: DT_FLOAT
    }
  }
  attr {
    key: "_class"
    value {
      list {
        s: "loc:@Model/softmax_biases"
      }
    }
  }
  attr {
    key: "_output_shapes"
    value {
      list {
        shape {
          dim {
            size: 12000
          }
        }
      }
    }
  }
}
node {
  name: "Train/Model/MatMul"
  op: "MatMul"
  input: "Train/Model/lstm/Reshape"
  input: "Model/softmax_weights/read"
  attr {
    key: "T"
    value {
      type: DT_FLOAT
    }
  }
  attr {
    key: "_output_shapes"
    value {
      list {
        shape {
          dim {
            size: 640
          }
          dim {
            size: 12000
          }
        }
      }
    }
  }
  attr {
    key: "transpose_a"
…
        s: "loc:@Model/lstm/multi_rnn_cell/cell_0/basic_lstm_cell/biases"
      }
    }
  }
  attr {
    key: "_output_shapes"
    value {
      list {
        shape {
          dim {
            size: 1024
          }
        }
      }
    }
  }
  attr {
    key: "use_locking"
    value {
      b: true
    }
  }
  attr {
    key: "validate_shape"
    value {
      b: true
    }
  }
}
node {
  name: "save/RestoreV2_3/tensor_names"
  op: "Const"
  attr {
    key: "_output_shapes"
    value {
      list {
        shape {
          dim {
            size: 1
          }
        }
      }
    }
  }
  attr {
    key: "dtype"
    value {
      type: DT_STRING
    }
  }
  attr {
    key: "value"
    value {
      tensor {
        dtype: DT_STRING
        tensor_shape {
          dim {
            size: 1
          }
        }
        string_val: "Model/Model/lstm/multi_rnn_cell/cell_0/basic_lstm_cell/biases/Adam_1"
      }
    }
  }
}
node {
  name: "save/RestoreV2_3/shape_and_slices"
  op: "Const"
  attr {
    key: "_output_shapes"
    value {
      list {
        shape {
          dim {
            size: 1
          }
        }
      }
    }
  }
  attr {
    key: "dtype"
    value {
      type: DT_STRING
    }
  }
  attr {
    key: "value"
    value {
      tensor {
        dtype: DT_STRING
        tensor_shape {
          dim {
            size: 1
          }
        }
        string_val: ""
      }
    }
  }
}
node {
  name: "save/RestoreV2_3"
  op: "RestoreV2"
  input: "save/Const"
  input: "save/RestoreV2_3/tensor_names"
  input: "save/RestoreV2_3/shape_and_slices"
  attr {
    key: "_output_shapes"
    value {
      list {
        shape {
          unknown_rank: true
        }
      }
    }
  }
  attr {
    key: "dtypes"
    value {
      list {
        type: DT_FLOAT
      }
    }
  }
}
node {
  name: "save/Assign_3"
  op: "Assign"
  input: "Model/Model/lstm/multi_rnn_cell/cell_0/basic_lstm_cell/biases/Adam_1"
  input: "save/RestoreV2_3"
  attr {
    key: "T"
    value {
      type: DT_FLOAT
    }
  }
  attr {
    key: "_class"
    value {
      list {
        s: "loc:@Model/lstm/multi_rnn_cell/cell_0/basic_lstm_cell/biases"
      }
    }
  }
  attr {
    key: "_output_shapes"
    value {
      list {
        shape {
          dim {
            size: 1024
          }
        }
      }
    }
  }
  attr {
    key: "use_locking"
    value {
      b: true
    }
  }
  attr {
    key: "validate_shape"
    value {
      b: true
    }
  }
}
node {
  name: "save/RestoreV2_4/tensor_names"
  op: "Const"
  attr {
    key: "_output_shapes"
    value {
      list {
        shape {
          dim {
            size: 1
          }
        }
      }
    }
  }
  attr {
    key: "dtype"
    value {
      type: DT_STRING
    }
  }
  attr {
    key: "value"
    value {
      tensor {
        dtype: DT_STRING
        tensor_shape {
          dim {
            size: 1
          }
        }
        string_val: "Model/Model/lstm/multi_rnn_cell/cell_0/basic_lstm_cell/weights/Adam"
      }
    }
  }
}
node {
  name: "save/RestoreV2_4/shape_and_slices"
  op: "Const"
  attr {
    key: "_output_shapes"
    value {
      list {
        shape {
          dim {
            size: 1
          }
        }
      }
    }
  }
  attr {
    key: "dtype"
    value {
      type: DT_STRING
    }
  }
  attr {
    key: "value"
    value {
      tensor {
        dtype: DT_STRING
        tensor_shape {
          dim {
            size: 1
          }
        }
        string_val: ""
      }
    }
  }
}
node {
  name: "save/RestoreV2_4"
  op: "RestoreV2"
  input: "save/Const"
  input: "save/RestoreV2_4/tensor_names"
  input: "save/RestoreV2_4/shape_and_slices"
  attr {
    key: "_output_shapes"
    value {
      list {
        shape {
          unknown_rank: true
        }
      }
    }
  }
  attr {
    key: "dtypes"
    value {
      list {
        type: DT_FLOAT
      }
    }
  }
}
node {
  name: "save/Assign_4"
  op: "Assign"
  input: "Model/Model/lstm/multi_rnn_cell/cell_0/basic_lstm_cell/weights/Adam"
  input: "save/RestoreV2_4"
  attr {
    key: "T"
    value {
      type: DT_FLOAT
    }
  }
  attr {
    key: "_class"
    value {
      list {
        s: "loc:@Model/lstm/multi_rnn_cell/cell_0/basic_lstm_cell/weights"
      }
    }
  }
  attr {
    key: "_output_shapes"
    value {
      list {
        shape {
          dim {
            size: 512
          }
          dim {
            size: 1024
          }
        }
      }
    }
  }
  attr {
    key: "use_locking"
    value {
      b: true
    }
  }
  attr {
    key: "validate_shape"
    value {
      b: true
    }
  }
}
node {
  name: "save/RestoreV2_5/tensor_names"
  op: "Const"
  attr {
    key: "_output_shapes"
    value {
      list {
        shape {
          dim {
            size: 1
          }
        }
      }
    }
  }
  attr {
    key: "dtype"
    value {
      type: DT_STRING
    }
  }
  attr {
    key: "value"
    value {
      tensor {
        dtype: DT_STRING
        tensor_shape {
          dim {
            size: 1
          }
        }
        string_val: "Model/Model/lstm/multi_rnn_cell/cell_0/basic_lstm_cell/weights/Adam_1"
      }
    }
  }
}
node {
  name: "save/RestoreV2_5/shape_and_slices"
  op: "Const"
  attr {
    key: "_output_shapes"
    value {
      list {
        shape {
          dim {
            size: 1
          }
        }
      }
    }
  }
  attr {
    key: "dtype"
    value {
      type: DT_STRING
    }
  }
  attr {
    key: "value"
    value {
      tensor {
        dtype: DT_STRING
        tensor_shape {
          dim {
            size: 1
          }
        }
        string_val: ""
      }
    }
  }
}
node {
  name: "save/RestoreV2_5"
  op: "RestoreV2"
  input: "save/Const"
  input: "save/RestoreV2_5/tensor_names"
  input: "save/RestoreV2_5/shape_and_slices"
  attr {
    key: "_output_shapes"
    value {
      list {
        shape {
          unknown_rank: true
        }
      }
    }
  }
  attr {
    key: "dtypes"
    value {
      list {
        type: DT_FLOAT
      }
    }
  }
}
node {
  name: "save/Assign_5"
  op: "Assign"
  input: "Model/Model/lstm/multi_rnn_cell/cell_0/basic_lstm_cell/weights/Adam_1"
  input: "save/RestoreV2_5"
  attr {
    key: "T"
    value {
      type: DT_FLOAT
    }
  }
  attr {
    key: "_class"
    value {
      list {
        s: "loc:@Model/lstm/multi_rnn_cell/cell_0/basic_lstm_cell/weights"
      }
    }
  }
  attr {
    key: "_output_shapes"
    value {
      list {
        shape {
          dim {
            size: 512
          }
          dim {
            size: 1024
          }
        }
      }
    }
  }
  attr {
    key: "use_locking"
    value {
      b: true
    }
  }
  attr {
    key: "validate_shape"
    value {
      b: true
    }
  }
}
node {
  name: "save/RestoreV2_6/tensor_names"
  op: "Const"
  attr {
    key: "_output_shapes"
    value {
      list {
        shape {
          dim {
            size: 1
          }
        }
      }
    }
  }
  attr {
    key: "dtype"
    value {
      type: DT_STRING
    }
  }
  attr {
    key: "value"
    value {
      tensor {
        dtype: DT_STRING
        tensor_shape {
          dim {
            size: 1
          }
        }
        string_val: "Model/Model/lstm/multi_rnn_cell/cell_1/basic_lstm_cell/biases/Adam"
      }
    }
  }
}
node {
  name: "save/RestoreV2_6/shape_and_slices"
  op: "Const"
  attr {
    key: "_output_shapes"
    value {
      list {
        shape {
          dim {
            size: 1
          }
        }
      }
    }
  }
  attr {
    key: "dtype"
    value {
      type: DT_STRING
    }
  }
  attr {
    key: "value"
    value {
      tensor {
        dtype: DT_STRING
        tensor_shape {
          dim {
            size: 1
          }
        }
        string_val: ""
      }
    }
  }
}
node {
  name: "save/RestoreV2_6"
  op: "RestoreV2"
  input: "save/Const"
  input: "save/RestoreV2_6/tensor_names"
  input: "save/RestoreV2_6/shape_and_slices"
  attr {
    key: "_output_shapes"
    value {
      list {
        shape {
          unknown_rank: true
        }
      }
    }
  }
  attr {
    key: "dtypes"
    value {
      list {
        type: DT_FLOAT
      }
    }
  }
}
node {
  name: "save/Assign_6"
  op: "Assign"
  input: "Model/Model/lstm/multi_rnn_cell/cell_1/basic_lstm_cell/biases/Adam"
  input: "save/RestoreV2_6"
  attr {
    key: "T"
    value {
      type: DT_FLOAT
    }
  }
  attr {
    key: "_class"
    value {
      list {
        s: "loc:@Model/lstm/multi_rnn_cell/cell_1/basic_lstm_cell/biases"
      }
    }
  }
  attr {
    key: "_output_shapes"
    value {
      list {
        shape {
          dim {
            size: 1024
          }
        }
      }
    }
  }
  attr {
    key: "use_locking"
    value {
      b: true
    }
  }
  attr {
    key: "validate_shape"
    value {
      b: true
    }
  }
}
node {
  name: "save/RestoreV2_7/tensor_names"
  op: "Const"
  attr {
    key: "_output_shapes"
    value {
      list {
        shape {
          dim {
            size: 1
          }
        }
      }
    }
  }
  attr {
    key: "dtype"
    value {
      type: DT_STRING
    }
  }
  attr {
    key: "value"
    value {
      tensor {
        dtype: DT_STRING
        tensor_shape {
          dim {
            size: 1
          }
        }
        string_val: "Model/Model/lstm/multi_rnn_cell/cell_1/basic_lstm_cell/biases/Adam_1"
      }
    }
  }
}
node {
  name: "save/RestoreV2_7/shape_and_slices"
  op: "Const"
  attr {
    key: "_output_shapes"
    value {
      list {
        shape {
          dim {
            size: 1
          }
        }
      }
    }
  }
  attr {
    key: "dtype"
    value {
      type: DT_STRING
    }
  }
  attr {
    key: "value"
    value {
      tensor {
        dtype: DT_STRING
        tensor_shape {
          dim {
            size: 1
          }
        }
        string_val: ""
      }
    }
  }
}
node {
  name: "save/RestoreV2_7"
  op: "RestoreV2"
  input: "save/Const"
  input: "save/RestoreV2_7/tensor_names"
  input: "save/RestoreV2_7/shape_and_slices"
  attr {
    key: "_output_shapes"
    value {
      list {
        shape {
          unknown_rank: true
        }
      }
    }
  }
  attr {
    key: "dtypes"
    value {
      list {
        type: DT_FLOAT
      }
    }
  }
}
node {
  name: "save/Assign_7"
  op: "Assign"
  input: "Model/Model/lstm/multi_rnn_cell/cell_1/basic_lstm_cell/biases/Adam_1"
  input: "save/RestoreV2_7"
  attr {
    key: "T"
    value {
      type: DT_FLOAT
    }
  }
  attr {
    key: "_class"
    value {
      list {
        s: "loc:@Model/lstm/multi_rnn_cell/cell_1/basic_lstm_cell/biases"
      }
    }
  }
  attr {
    key: "_output_shapes"
    value {
      list {
        shape {
          dim {
            size: 1024
          }
        }
      }
    }
  }
  attr {
    key: "use_locking"
    value {
      b: true
    }
  }
  attr {
    key: "validate_shape"
    value {
      b: true
    }
  }
}
node {
  name: "save/RestoreV2_8/tensor_names"
  op: "Const"
  attr {
    key: "_output_shapes"
    value {
      list {
        shape {
          dim {
            size: 1
          }
        }
      }
    }
  }
  attr {
    key: "dtype"
    value {
      type: DT_STRING
    }
  }
  attr {
    key: "value"
    value {
      tensor {
        dtype: DT_STRING
        tensor_shape {
          dim {
            size: 1
          }
        }
        string_val: "Model/Model/lstm/multi_rnn_cell/cell_1/basic_lstm_cell/weights/Adam"
      }
    }
  }
}
node {
  name: "save/RestoreV2_8/shape_and_slices"
  op: "Const"
  attr {
    key: "_output_shapes"
    value {
      list {
        shape {
          dim {
            size: 1
          }
        }
      }
    }
  }
  attr {
    key: "dtype"
    value {
      type: DT_STRING
    }
  }
  attr {
    key: "value"
    value {
      tensor {
        dtype: DT_STRING
        tensor_shape {
          dim {
            size: 1
          }
        }
        string_val: ""
      }
    }
  }
}
node {
  name: "save/RestoreV2_8"
  op: "RestoreV2"
  input: "save/Const"
  input: "save/RestoreV2_8/tensor_names"
  input: "save/RestoreV2_8/shape_and_slices"
  attr {
    key: "_output_shapes"
    value {
      list {
        shape {
          unknown_rank: true
        }
      }
    }
  }
  attr {
    key: "dtypes"
    value {
      list {
        type: DT_FLOAT
      }
    }
  }
}
node {
  name: "save/Assign_8"
  op: "Assign"
  input: "Model/Model/lstm/multi_rnn_cell/cell_1/basic_lstm_cell/weights/Adam"
  input: "save/RestoreV2_8"
  attr {
    key: "T"
    value {
      type: DT_FLOAT
    }
  }
  attr {
    key: "_class"
    value {
      list {
        s: "loc:@Model/lstm/multi_rnn_cell/cell_1/basic_lstm_cell/weights"
      }
    }
  }
  attr {
    key: "_output_shapes"
    value {
      list {
        shape {
          dim {
            size: 512
          }
          dim {
            size: 1024
          }
        }
      }
    }
  }
  attr {
    key: "use_locking"
    value {
      b: true
    }
  }
  attr {
    key: "validate_shape"
    value {
      b: true
    }
  }
}
node {
  name: "save/RestoreV2_9/tensor_names"
  op: "Const"
  attr {
    key: "_output_shapes"
    value {
      list {
        shape {
          dim {
            size: 1
          }
        }
      }
    }
  }
  attr {
    key: "dtype"
    value {
      type: DT_STRING
    }
  }
  attr {
    key: "value"
    value {
      tensor {
        dtype: DT_STRING
        tensor_shape {
          dim {
            size: 1
          }
        }
        string_val: "Model/Model/lstm/multi_rnn_cell/cell_1/basic_lstm_cell/weights/Adam_1"
      }
    }
  }
}
node {
  name: "save/RestoreV2_9/shape_and_slices"
  op: "Const"
  attr {
    key: "_output_shapes"
    value {
      list {
        shape {
          dim {
            size: 1
          }
        }
      }
    }
  }
  attr {
    key: "dtype"
    value {
      type: DT_STRING
    }
  }
  attr {
    key: "value"
    value {
      tensor {
        dtype: DT_STRING
        tensor_shape {
          dim {
            size: 1
          }
        }
        string_val: ""
      }
    }
  }
}
node {
  name: "save/RestoreV2_9"
  op: "RestoreV2"
  input: "save/Const"
  input: "save/RestoreV2_9/tensor_names"
  input: "save/RestoreV2_9/shape_and_slices"
  attr {
    key: "_output_shapes"
    value {
      list {
        shape {
          unknown_rank: true
        }
      }
    }
  }
  attr {
    key: "dtypes"
    value {
      list {
        type: DT_FLOAT
      }
    }
  }
}
node {
  name: "save/Assign_9"
  op: "Assign"
  input: "Model/Model/lstm/multi_rnn_cell/cell_1/basic_lstm_cell/weights/Adam_1"
  input: "save/RestoreV2_9"
  attr {
    key: "T"
    value {
      type: DT_FLOAT
    }
  }
  attr {
    key: "_class"
    value {
      list {
        s: "loc:@Model/lstm/multi_rnn_cell/cell_1/basic_lstm_cell/weights"
      }
    }
  }
  attr {
    key: "_output_shapes"
    value {
      list {
        shape {
          dim {
            size: 512
          }
          dim {
            size: 1024
          }
        }
      }
    }
  }
  attr {
    key: "use_locking"
    value {
      b: true
    }
  }
  attr {
    key: "validate_shape"
    value {
      b: true
    }
  }
}
node {
  name: "save/RestoreV2_10/tensor_names"
  op: "Const"
  attr {
    key: "_output_shapes"
    value {
      list {
        shape {
          dim {
            size: 1
          }
        }
      }
    }
  }
  attr {
    key: "dtype"
    value {
      type: DT_STRING
    }
  }
  attr {
    key: "value"
    value {
      tensor {
        dtype: DT_STRING
        tensor_shape {
          dim {
            size: 1
          }
        }
        string_val: "Model/Model/softmax_biases/Adam"
      }
    }
  }
}
node {
  name: "save/RestoreV2_10/shape_and_slices"
  op: "Const"
  attr {
    key: "_output_shapes"
    value {
      list {
        shape {
          dim {
            size: 1
          }
        }
      }
    }
  }
  attr {
    key: "dtype"
    value {
      type: DT_STRING
    }
  }
  attr {
    key: "value"
    value {
      tensor {
        dtype: DT_STRING
        tensor_shape {
          dim {
            size: 1
          }
        }
        string_val: ""
      }
    }
  }
}
node {
  name: "save/RestoreV2_10"
  op: "RestoreV2"
  input: "save/Const"
  input: "save/RestoreV2_10/tensor_names"
  input: "save/RestoreV2_10/shape_and_slices"
  attr {
    key: "_output_shapes"
    value {
      list {
        shape {
          unknown_rank: true
        }
      }
    }
  }
  attr {
    key: "dtypes"
    value {
      list {
        type: DT_FLOAT
      }
    }
  }
}
node {
  name: "save/Assign_10"
  op: "Assign"
  input: "Model/Model/softmax_biases/Adam"
  input: "save/RestoreV2_10"
  attr {
    key: "T"
    value {
      type: DT_FLOAT
    }
  }
  attr {
    key: "_class"
    value {
      list {
        s: "loc:@Model/softmax_biases"
      }
    }
  }
  attr {
    key: "_output_shapes"
    value {
      list {
        shape {
          dim {
            size: 12000
          }
        }
      }
    }
  }
  attr {
    key: "use_locking"
    value {
      b: true
    }
  }
  attr {
    key: "validate_shape"
    value {
      b: true
    }
  }
}
node {
  name: "save/RestoreV2_11/tensor_names"
  op: "Const"
  attr {
    key: "_output_shapes"
    value {
      list {
        shape {
          dim {
            size: 1
          }
        }
      }
    }
  }
  attr {
    key: "dtype"
    value {
      type: DT_STRING
    }
  }
  attr {
    key: "value"
    value {
      tensor {
        dtype: DT_STRING
        tensor_shape {
          dim {
            size: 1
          }
        }
        string_val: "Model/Model/softmax_biases/Adam_1"
      }
    }
  }
}
node {
  name: "save/RestoreV2_11/shape_and_slices"
  op: "Const"
  attr {
    key: "_output_shapes"
    value {
      list {
        shape {
          dim {
            size: 1
          }
        }
      }
    }
  }
  attr {
    key: "dtype"
    value {
      type: DT_STRING
    }
  }
  attr {
    key: "value"
    value {
      tensor {
        dtype: DT_STRING
        tensor_shape {
          dim {
            size: 1
          }
        }
        string_val: ""
      }
    }
  }
}
node {
  name: "save/RestoreV2_11"
  op: "RestoreV2"
  input: "save/Const"
  input: "save/RestoreV2_11/tensor_names"
  input: "save/RestoreV2_11/shape_and_slices"
  attr {
    key: "_output_shapes"
    value {
      list {
        shape {
          unknown_rank: true
        }
      }
    }
  }
  attr {
    key: "dtypes"
    value {
      list {
        type: DT_FLOAT
      }
    }
  }
}
node {
  name: "save/Assign_11"
  op: "Assign"
  input: "Model/Model/softmax_biases/Adam_1"
  input: "save/RestoreV2_11"
  attr {
    key: "T"
    value {
      type: DT_FLOAT
    }
  }
  attr {
    key: "_class"
    value {
      list {
        s: "loc:@Model/softmax_biases"
      }
    }
  }
  attr {
    key: "_output_shapes"
    value {
      list {
        shape {
          dim {
            size: 12000
          }
        }
      }
    }
  }
  attr {
    key: "use_locking"
    value {
      b: true
    }
  }
  attr {
    key: "validate_shape"
    value {
      b: true
    }
  }
}
node {
  name: "save/RestoreV2_12/tensor_names"
  op: "Const"
  attr {
    key: "_output_shapes"
    value {
      list {
        shape {
          dim {
            size: 1
          }
        }
      }
    }
  }
  attr {
    key: "dtype"
    value {
      type: DT_STRING
    }
  }
  attr {
    key: "value"
    value {
      tensor {
        dtype: DT_STRING
        tensor_shape {
          dim {
            size: 1
          }
        }
        string_val: "Model/Model/softmax_weights/Adam"
      }
    }
  }
}
node {
  name: "save/RestoreV2_12/shape_and_slices"
  op: "Const"
  attr {
    key: "_output_shapes"
    value {
      list {
        shape {
          dim {
            size: 1
          }
        }
      }
    }
  }
  attr {
    key: "dtype"
    value {
      type: DT_STRING
    }
  }
  attr {
    key: "value"
    value {
      tensor {
        dtype: DT_STRING
        tensor_shape {
          dim {
            size: 1
          }
        }
        string_val: ""
      }
    }
  }
}
node {
  name: "save/RestoreV2_12"
  op: "RestoreV2"
  input: "save/Const"
  input: "save/RestoreV2_12/tensor_names"
  input: "save/RestoreV2_12/shape_and_slices"
  attr {
    key: "_output_shapes"
    value {
      list {
        shape {
          unknown_rank: true
        }
      }
    }
  }
  attr {
    key: "dtypes"
    value {
      list {
        type: DT_FLOAT
      }
    }
  }
}
node {
  name: "save/Assign_12"
  op: "Assign"
  input: "Model/Model/softmax_weights/Adam"
  input: "save/RestoreV2_12"
  attr {
    key: "T"
    value {
      type: DT_FLOAT
    }
  }
  attr {
    key: "_class"
    value {
      list {
        s: "loc:@Model/softmax_weights"
      }
    }
  }
  attr {
    key: "_output_shapes"
    value {
      list {
        shape {
          dim {
            size: 256
          }
          dim {
            size: 12000
          }
        }
      }
    }
  }
  attr {
    key: "use_locking"
    value {
      b: true
    }
  }
  attr {
    key: "validate_shape"
    value {
      b: true
    }
  }
}
node {
  name: "save/RestoreV2_13/tensor_names"
  op: "Const"
  attr {
    key: "_output_shapes"
    value {
      list {
        shape {
          dim {
            size: 1
          }
        }
      }
    }
  }
  attr {
    key: "dtype"
    value {
      type: DT_STRING
    }
  }
  attr {
    key: "value"
    value {
      tensor {
        dtype: DT_STRING
        tensor_shape {
          dim {
            size: 1
          }
        }
        string_val: "Model/Model/softmax_weights/Adam_1"
      }
    }
  }
}
node {
  name: "save/RestoreV2_13/shape_and_slices"
  op: "Const"
  attr {
    key: "_output_shapes"
    value {
      list {
        shape {
          dim {
            size: 1
          }
        }
      }
    }
  }
  attr {
    key: "dtype"
    value {
      type: DT_STRING
    }
  }
  attr {
    key: "value"
    value {
      tensor {
        dtype: DT_STRING
        tensor_shape {
          dim {
            size: 1
          }
        }
        string_val: ""
      }
    }
  }
}
node {
  name: "save/RestoreV2_13"
  op: "RestoreV2"
  input: "save/Const"
  input: "save/RestoreV2_13/tensor_names"
  input: "save/RestoreV2_13/shape_and_slices"
  attr {
    key: "_output_shapes"
    value {
      list {
        shape {
          unknown_rank: true
        }
      }
    }
  }
  attr {
    key: "dtypes"
    value {
      list {
        type: DT_FLOAT
      }
    }
  }
}
node {
  name: "save/Assign_13"
  op: "Assign"
  input: "Model/Model/softmax_weights/Adam_1"
  input: "save/RestoreV2_13"
  attr {
    key: "T"
    value {
      type: DT_FLOAT
    }
  }
  attr {
    key: "_class"
    value {
      list {
        s: "loc:@Model/softmax_weights"
      }
    }
  }
  attr {
    key: "_output_shapes"
    value {
      list {
        shape {
          dim {
            size: 256
          }
          dim {
            size: 12000
          }
        }
      }
    }
  }
  attr {
    key: "use_locking"
    value {
      b: true
    }
  }
  attr {
    key: "validate_shape"
    value {
      b: true
    }
  }
}
node {
  name: "save/RestoreV2_14/tensor_names"
  op: "Const"
  attr {
    key: "_output_shapes"
    value {
      list {
        shape {
          dim {
            size: 1
          }
        }
      }
    }
  }
  attr {
    key: "dtype"
    value {
      type: DT_STRING
    }
  }
  attr {
    key: "value"
    value {
      tensor {
        dtype: DT_STRING
        tensor_shape {
          dim {
            size: 1
          }
        }
        string_val: "Model/embedding_weights"
      }
    }
  }
}
node {
  name: "save/RestoreV2_14/shape_and_slices"
  op: "Const"
  attr {
    key: "_output_shapes"
    value {
      list {
        shape {
          dim {
            size: 1
          }
        }
      }
    }
  }
  attr {
    key: "dtype"
    value {
      type: DT_STRING
    }
  }
  attr {
    key: "value"
    value {
      tensor {
        dtype: DT_STRING
        tensor_shape {
          dim {
            size: 1
          }
        }
        string_val: ""
      }
    }
  }
}
node {
  name: "save/RestoreV2_14"
  op: "RestoreV2"
  input: "save/Const"
  input: "save/RestoreV2_14/tensor_names"
  input: "save/RestoreV2_14/shape_and_slices"
  attr {
    key: "_output_shapes"
    value {
      list {
        shape {
          unknown_rank: true
        }
      }
    }
  }
  attr {
    key: "dtypes"
    value {
      list {
        type: DT_FLOAT
      }
    }
  }
}
node {
  name: "save/Assign_14"
  op: "Assign"
  input: "Model/embedding_weights"
  input: "save/RestoreV2_14"
  attr {
    key: "T"
    value {
      type: DT_FLOAT
    }
  }
  attr {
    key: "_class"
    value {
      list {
        s: "loc:@Model/embedding_weights"
      }
    }
  }
  attr {
    key: "_output_shapes"
    value {
      list {
        shape {
          dim {
            size: 12000
          }
          dim {
            size: 256
          }
        }
      }
    }
  }
  attr {
    key: "use_locking"
    value {
      b: true
    }
  }
  attr {
    key: "validate_shape"
    value {
      b: true
    }
  }
}
node {
  name: "save/RestoreV2_15/tensor_names"
  op: "Const"
  attr {
    key: "_output_shapes"
    value {
      list {
        shape {
          dim {
            size: 1
          }
        }
      }
    }
  }
  attr {
    key: "dtype"
    value {
      type: DT_STRING
    }
  }
  attr {
    key: "value"
    value {
      tensor {
        dtype: DT_STRING
        tensor_shape {
          dim {
            size: 1
          }
        }
        string_val: "Model/lstm/multi_rnn_cell/cell_0/basic_lstm_cell/biases"
      }
    }
  }
}
node {
  name: "save/RestoreV2_15/shape_and_slices"
  op: "Const"
  attr {
    key: "_output_shapes"
    value {
      list {
        shape {
          dim {
            size: 1
          }
        }
      }
    }
  }
  attr {
    key: "dtype"
    value {
      type: DT_STRING
    }
  }
  attr {
    key: "value"
    value {
      tensor {
        dtype: DT_STRING
        tensor_shape {
          dim {
            size: 1
          }
        }
        string_val: ""
      }
    }
  }
}
node {
  name: "save/RestoreV2_15"
  op: "RestoreV2"
  input: "save/Const"
  input: "save/RestoreV2_15/tensor_names"
  input: "save/RestoreV2_15/shape_and_slices"
  attr {
    key: "_output_shapes"
    value {
      list {
        shape {
          unknown_rank: true
        }
      }
    }
  }
  attr {
    key: "dtypes"
    value {
      list {
        type: DT_FLOAT
      }
    }
  }
}
node {
  name: "save/Assign_15"
  op: "Assign"
  input: "Model/lstm/multi_rnn_cell/cell_0/basic_lstm_cell/biases"
  input: "save/RestoreV2_15"
  attr {
    key: "T"
    value {
      type: DT_FLOAT
    }
  }
  attr {
    key: "_class"
    value {
      list {
        s: "loc:@Model/lstm/multi_rnn_cell/cell_0/basic_lstm_cell/biases"
      }
    }
  }
  attr {
    key: "_output_shapes"
    value {
      list {
        shape {
          dim {
            size: 1024
          }
        }
      }
    }
  }
  attr {
    key: "use_locking"
    value {
      b: true
    }
  }
  attr {
    key: "validate_shape"
    value {
      b: true
    }
  }
}
node {
  name: "save/RestoreV2_16/tensor_names"
  op: "Const"
  attr {
    key: "_output_shapes"
    value {
      list {
        shape {
          dim {
            size: 1
          }
        }
      }
    }
  }
  attr {
    key: "dtype"
    value {
      type: DT_STRING
    }
  }
  attr {
    key: "value"
    value {
      tensor {
        dtype: DT_STRING
        tensor_shape {
          dim {
            size: 1
          }
        }
        string_val: "Model/lstm/multi_rnn_cell/cell_0/basic_lstm_cell/weights"
      }
    }
  }
}
node {
  name: "save/RestoreV2_16/shape_and_slices"
  op: "Const"
  attr {
    key: "_output_shapes"
    value {
      list {
        shape {
          dim {
            size: 1
          }
        }
      }
    }
  }
  attr {
    key: "dtype"
    value {
      type: DT_STRING
    }
  }
  attr {
    key: "value"
    value {
      tensor {
        dtype: DT_STRING
        tensor_shape {
          dim {
            size: 1
          }
        }
        string_val: ""
      }
    }
  }
}
node {
  name: "save/RestoreV2_16"
  op: "RestoreV2"
  input: "save/Const"
  input: "save/RestoreV2_16/tensor_names"
  input: "save/RestoreV2_16/shape_and_slices"
  attr {
    key: "_output_shapes"
    value {
      list {
        shape {
          unknown_rank: true
        }
      }
    }
  }
  attr {
    key: "dtypes"
    value {
      list {
        type: DT_FLOAT
      }
    }
  }
}
node {
  name: "save/Assign_16"
  op: "Assign"
  input: "Model/lstm/multi_rnn_cell/cell_0/basic_lstm_cell/weights"
  input: "save/RestoreV2_16"
  attr {
    key: "T"
    value {
      type: DT_FLOAT
    }
  }
  attr {
    key: "_class"
    value {
      list {
        s: "loc:@Model/lstm/multi_rnn_cell/cell_0/basic_lstm_cell/weights"
      }
    }
  }
  attr {
    key: "_output_shapes"
    value {
      list {
        shape {
          dim {
            size: 512
          }
          dim {
            size: 1024
          }
        }
      }
    }
  }
  attr {
    key: "use_locking"
    value {
      b: true
    }
  }
  attr {
    key: "validate_shape"
    value {
      b: true
    }
  }
}
node {
  name: "save/RestoreV2_17/tensor_names"
  op: "Const"
  attr {
    key: "_output_shapes"
    value {
      list {
        shape {
          dim {
            size: 1
          }
        }
      }
    }
  }
  attr {
    key: "dtype"
    value {
      type: DT_STRING
    }
  }
  attr {
    key: "value"
    value {
      tensor {
        dtype: DT_STRING
        tensor_shape {
          dim {
            size: 1
          }
        }
        string_val: "Model/lstm/multi_rnn_cell/cell_1/basic_lstm_cell/biases"
      }
    }
  }
}
node {
  name: "save/RestoreV2_17/shape_and_slices"
  op: "Const"
  attr {
    key: "_output_shapes"
    value {
      list {
        shape {
          dim {
            size: 1
          }
        }
      }
    }
  }
  attr {
    key: "dtype"
    value {
      type: DT_STRING
    }
  }
  attr {
    key: "value"
    value {
      tensor {
        dtype: DT_STRING
        tensor_shape {
          dim {
            size: 1
          }
        }
        string_val: ""
      }
    }
  }
}
node {
  name: "save/RestoreV2_17"
  op: "RestoreV2"
  input: "save/Const"
  input: "save/RestoreV2_17/tensor_names"
  input: "save/RestoreV2_17/shape_and_slices"
  attr {
    key: "_output_shapes"
    value {
      list {
        shape {
          unknown_rank: true
        }
      }
    }
  }
  attr {
    key: "dtypes"
    value {
      list {
        type: DT_FLOAT
      }
    }
  }
}
node {
  name: "save/Assign_17"
  op: "Assign"
  input: "Model/lstm/multi_rnn_cell/cell_1/basic_lstm_cell/biases"
  input: "save/RestoreV2_17"
  attr {
    key: "T"
    value {
      type: DT_FLOAT
    }
  }
  attr {
    key: "_class"
    value {
      list {
        s: "loc:@Model/lstm/multi_rnn_cell/cell_1/basic_lstm_cell/biases"
      }
    }
  }
  attr {
    key: "_output_shapes"
    value {
      list {
        shape {
          dim {
            size: 1024
          }
        }
      }
    }
  }
  attr {
    key: "use_locking"
    value {
      b: true
    }
  }
  attr {
    key: "validate_shape"
    value {
      b: true
    }
  }
}
node {
  name: "save/RestoreV2_18/tensor_names"
  op: "Const"
  attr {
    key: "_output_shapes"
    value {
      list {
        shape {
          dim {
            size: 1
          }
        }
      }
    }
  }
  attr {
    key: "dtype"
    value {
      type: DT_STRING
    }
  }
  attr {
    key: "value"
    value {
      tensor {
        dtype: DT_STRING
        tensor_shape {
          dim {
            size: 1
          }
        }
        string_val: "Model/lstm/multi_rnn_cell/cell_1/basic_lstm_cell/weights"
      }
    }
  }
}
node {
  name: "save/RestoreV2_18/shape_and_slices"
  op: "Const"
  attr {
    key: "_output_shapes"
    value {
      list {
        shape {
          dim {
            size: 1
          }
        }
      }
    }
  }
  attr {
    key: "dtype"
    value {
      type: DT_STRING
    }
  }
  attr {
    key: "value"
    value {
      tensor {
        dtype: DT_STRING
        tensor_shape {
          dim {
            size: 1
          }
        }
        string_val: ""
      }
    }
  }
}
node {
  name: "save/RestoreV2_18"
  op: "RestoreV2"
  input: "save/Const"
  input: "save/RestoreV2_18/tensor_names"
  input: "save/RestoreV2_18/shape_and_slices"
  attr {
    key: "_output_shapes"
    value {
      list {
        shape {
          unknown_rank: true
        }
      }
    }
  }
  attr {
    key: "dtypes"
    value {
      list {
        type: DT_FLOAT
      }
    }
  }
}
node {
  name: "save/Assign_18"
  op: "Assign"
  input: "Model/lstm/multi_rnn_cell/cell_1/basic_lstm_cell/weights"
  input: "save/RestoreV2_18"
  attr {
    key: "T"
    value {
      type: DT_FLOAT
    }
  }
  attr {
    key: "_class"
    value {
      list {
        s: "loc:@Model/lstm/multi_rnn_cell/cell_1/basic_lstm_cell/weights"
      }
    }
  }
  attr {
    key: "_output_shapes"
    value {
      list {
        shape {
          dim {
            size: 512
          }
          dim {
            size: 1024
          }
        }
      }
    }
  }
  attr {
    key: "use_locking"
    value {
      b: true
    }
  }
  attr {
    key: "validate_shape"
    value {
      b: true
    }
  }
}
node {
  name: "save/RestoreV2_19/tensor_names"
  op: "Const"
  attr {
    key: "_output_shapes"
    value {
      list {
        shape {
          dim {
            size: 1
          }
        }
      }
    }
  }
  attr {
    key: "dtype"
    value {
      type: DT_STRING
    }
  }
  attr {
    key: "value"
    value {
      tensor {
        dtype: DT_STRING
        tensor_shape {
          dim {
            size: 1
          }
        }
        string_val: "Model/softmax_biases"
      }
    }
  }
}
node {
  name: "save/RestoreV2_19/shape_and_slices"
  op: "Const"
  attr {
    key: "_output_shapes"
    value {
      list {
        shape {
          dim {
            size: 1
          }
        }
      }
    }
  }
  attr {
    key: "dtype"
    value {
      type: DT_STRING
    }
  }
  attr {
    key: "value"
    value {
      tensor {
        dtype: DT_STRING
        tensor_shape {
          dim {
            size: 1
          }
        }
        string_val: ""
      }
    }
  }
}
node {
  name: "save/RestoreV2_19"
  op: "RestoreV2"
  input: "save/Const"
  input: "save/RestoreV2_19/tensor_names"
  input: "save/RestoreV2_19/shape_and_slices"
  attr {
    key: "_output_shapes"
    value {
      list {
        shape {
          unknown_rank: true
        }
      }
    }
  }
  attr {
    key: "dtypes"
    value {
      list {
        type: DT_FLOAT
      }
    }
  }
}
node {
  name: "save/Assign_19"
  op: "Assign"
  input: "Model/softmax_biases"
  input: "save/RestoreV2_19"
  attr {
    key: "T"
    value {
      type: DT_FLOAT
    }
  }
  attr {
    key: "_class"
    value {
      list {
        s: "loc:@Model/softmax_biases"
      }
    }
  }
  attr {
    key: "_output_shapes"
    value {
      list {
        shape {
          dim {
            size: 12000
          }
        }
      }
    }
  }
  attr {
    key: "use_locking"
    value {
      b: true
    }
  }
  attr {
    key: "validate_shape"
    value {
      b: true
    }
  }
}
node {
  name: "save/RestoreV2_20/tensor_names"
  op: "Const"
  attr {
    key: "_output_shapes"
    value {
      list {
        shape {
          dim {
            size: 1
          }
        }
      }
    }
  }
  attr {
    key: "dtype"
    value {
      type: DT_STRING
    }
  }
  attr {
    key: "value"
    value {
      tensor {
        dtype: DT_STRING
        tensor_shape {
          dim {
            size: 1
          }
        }
        string_val: "Model/softmax_weights"
      }
    }
  }
}
node {
  name: "save/RestoreV2_20/shape_and_slices"
  op: "Const"
  attr {
    key: "_output_shapes"
    value {
      list {
        shape {
          dim {
            size: 1
          }
        }
      }
    }
  }
  attr {
    key: "dtype"
    value {
      type: DT_STRING
    }
  }
  attr {
    key: "value"
    value {
      tensor {
        dtype: DT_STRING
        tensor_shape {
          dim {
            size: 1
          }
        }
        string_val: ""
      }
    }
  }
}
node {
  name: "save/RestoreV2_20"
  op: "RestoreV2"
  input: "save/Const"
  input: "save/RestoreV2_20/tensor_names"
  input: "save/RestoreV2_20/shape_and_slices"
  attr {
    key: "_output_shapes"
    value {
      list {
        shape {
          unknown_rank: true
        }
      }
    }
  }
  attr {
    key: "dtypes"
    value {
      list {
        type: DT_FLOAT
      }
    }
  }
}
node {
  name: "save/Assign_20"
  op: "Assign"
  input: "Model/softmax_weights"
  input: "save/RestoreV2_20"
  attr {
    key: "T"
    value {
      type: DT_FLOAT
    }
  }
  attr {
    key: "_class"
    value {
      list {
        s: "loc:@Model/softmax_weights"
      }
    }
  }
  attr {
    key: "_output_shapes"
    value {
      list {
        shape {
          dim {
            size: 256
          }
          dim {
            size: 12000
          }
        }
      }
    }
  }
  attr {
    key: "use_locking"
    value {
      b: true
    }
  }
  attr {
    key: "validate_shape"
    value {
      b: true
    }
  }
}
node {
  name: "save/RestoreV2_21/tensor_names"
  op: "Const"
  attr {
    key: "_output_shapes"
    value {
      list {
        shape {
          dim {
            size: 1
          }
        }
      }
    }
  }
  attr {
    key: "dtype"
    value {
      type: DT_STRING
    }
  }
  attr {
    key: "value"
    value {
      tensor {
        dtype: DT_STRING
        tensor_shape {
          dim {
            size: 1
          }
        }
        string_val: "Test/Model/beta1_power"
      }
    }
  }
}
node {
  name: "save/RestoreV2_21/shape_and_slices"
  op: "Const"
  attr {
    key: "_output_shapes"
    value {
      list {
        shape {
          dim {
            size: 1
          }
        }
      }
    }
  }
  attr {
    key: "dtype"
    value {
      type: DT_STRING
    }
  }
  attr {
    key: "value"
    value {
      tensor {
        dtype: DT_STRING
        tensor_shape {
          dim {
            size: 1
          }
        }
        string_val: ""
      }
    }
  }
}
node {
  name: "save/RestoreV2_21"
  op: "RestoreV2"
  input: "save/Const"
  input: "save/RestoreV2_21/tensor_names"
  input: "save/RestoreV2_21/shape_and_slices"
  attr {
    key: "_output_shapes"
    value {
      list {
        shape {
          unknown_rank: true
        }
      }
    }
  }
  attr {
    key: "dtypes"
    value {
      list {
        type: DT_FLOAT
      }
    }
  }
}
node {
  name: "save/Assign_21"
  op: "Assign"
  input: "Test/Model/beta1_power"
  input: "save/RestoreV2_21"
  attr {
    key: "T"
    value {
      type: DT_FLOAT
    }
  }
  attr {
    key: "_class"
    value {
      list {
        s: "loc:@Model/embedding_weights"
      }
    }
  }
  attr {
    key: "_output_shapes"
    value {
      list {
        shape {
        }
      }
    }
  }
  attr {
    key: "use_locking"
    value {
      b: true
    }
  }
  attr {
    key: "validate_shape"
    value {
      b: true
    }
  }
}
node {
  name: "save/RestoreV2_22/tensor_names"
  op: "Const"
  attr {
    key: "_output_shapes"
    value {
      list {
        shape {
          dim {
            size: 1
          }
        }
      }
    }
  }
  attr {
    key: "dtype"
    value {
      type: DT_STRING
    }
  }
  attr {
    key: "value"
    value {
      tensor {
        dtype: DT_STRING
        tensor_shape {
          dim {
            size: 1
          }
        }
        string_val: "Test/Model/beta2_power"
      }
    }
  }
}
node {
  name: "save/RestoreV2_22/shape_and_slices"
  op: "Const"
  attr {
    key: "_output_shapes"
    value {
      list {
        shape {
          dim {
            size: 1
          }
        }
      }
    }
  }
  attr {
    key: "dtype"
    value {
      type: DT_STRING
    }
  }
  attr {
    key: "value"
    value {
      tensor {
        dtype: DT_STRING
        tensor_shape {
          dim {
            size: 1
          }
        }
        string_val: ""
      }
    }
  }
}
node {
  name: "save/RestoreV2_22"
  op: "RestoreV2"
  input: "save/Const"
  input: "save/RestoreV2_22/tensor_names"
  input: "save/RestoreV2_22/shape_and_slices"
  attr {
    key: "_output_shapes"
    value {
      list {
        shape {
          unknown_rank: true
        }
      }
    }
  }
  attr {
    key: "dtypes"
    value {
      list {
        type: DT_FLOAT
      }
    }
  }
}
node {
  name: "save/Assign_22"
  op: "Assign"
  input: "Test/Model/beta2_power"
  input: "save/RestoreV2_22"
  attr {
    key: "T"
    value {
      type: DT_FLOAT
    }
  }
  attr {
    key: "_class"
    value {
      list {
        s: "loc:@Model/embedding_weights"
      }
    }
  }
  attr {
    key: "_output_shapes"
    value {
      list {
        shape {
        }
      }
    }
  }
  attr {
    key: "use_locking"
    value {
      b: true
    }
  }
  attr {
    key: "validate_shape"
    value {
      b: true
    }
  }
}
node {
  name: "save/RestoreV2_23/tensor_names"
  op: "Const"
  attr {
    key: "_output_shapes"
    value {
      list {
        shape {
          dim {
            size: 1
          }
        }
      }
    }
  }
  attr {
    key: "dtype"
    value {
      type: DT_STRING
    }
  }
  attr {
    key: "value"
    value {
      tensor {
        dtype: DT_STRING
        tensor_shape {
          dim {
            size: 1
          }
        }
        string_val: "Train/Model/beta1_power"
      }
    }
  }
}
node {
  name: "save/RestoreV2_23/shape_and_slices"
  op: "Const"
  attr {
    key: "_output_shapes"
    value {
      list {
        shape {
          dim {
            size: 1
          }
        }
      }
    }
  }
  attr {
    key: "dtype"
    value {
      type: DT_STRING
    }
  }
  attr {
    key: "value"
    value {
      tensor {
        dtype: DT_STRING
        tensor_shape {
          dim {
            size: 1
          }
        }
        string_val: ""
      }
    }
  }
}
node {
  name: "save/RestoreV2_23"
  op: "RestoreV2"
  input: "save/Const"
  input: "save/RestoreV2_23/tensor_names"
  input: "save/RestoreV2_23/shape_and_slices"
  attr {
    key: "_output_shapes"
    value {
      list {
        shape {
          unknown_rank: true
        }
      }
    }
  }
  attr {
    key: "dtypes"
    value {
      list {
        type: DT_FLOAT
      }
    }
  }
}
node {
  name: "save/Assign_23"
  op: "Assign"
  input: "Train/Model/beta1_power"
  input: "save/RestoreV2_23"
  attr {
    key: "T"
    value {
      type: DT_FLOAT
    }
  }
  attr {
    key: "_class"
    value {
      list {
        s: "loc:@Model/embedding_weights"
      }
    }
  }
  attr {
    key: "_output_shapes"
    value {
      list {
        shape {
        }
      }
    }
  }
  attr {
    key: "use_locking"
    value {
      b: true
    }
  }
  attr {
    key: "validate_shape"
    value {
      b: true
    }
  }
}
node {
  name: "save/RestoreV2_24/tensor_names"
  op: "Const"
  attr {
    key: "_output_shapes"
    value {
      list {
        shape {
          dim {
            size: 1
          }
        }
      }
    }
  }
  attr {
    key: "dtype"
    value {
      type: DT_STRING
    }
  }
  attr {
    key: "value"
    value {
      tensor {
        dtype: DT_STRING
        tensor_shape {
          dim {
            size: 1
          }
        }
        string_val: "Train/Model/beta2_power"
      }
    }
  }
}
node {
  name: "save/RestoreV2_24/shape_and_slices"
  op: "Const"
  attr {
    key: "_output_shapes"
    value {
      list {
        shape {
          dim {
            size: 1
          }
        }
      }
    }
  }
  attr {
    key: "dtype"
    value {
      type: DT_STRING
    }
  }
  attr {
    key: "value"
    value {
      tensor {
        dtype: DT_STRING
        tensor_shape {
          dim {
            size: 1
          }
        }
        string_val: ""
      }
    }
  }
}
node {
  name: "save/RestoreV2_24"
  op: "RestoreV2"
  input: "save/Const"
  input: "save/RestoreV2_24/tensor_names"
  input: "save/RestoreV2_24/shape_and_slices"
  attr {
    key: "_output_shapes"
    value {
      list {
        shape {
          unknown_rank: true
        }
      }
    }
  }
  attr {
    key: "dtypes"
    value {
      list {
        type: DT_FLOAT
      }
    }
  }
}
node {
  name: "save/Assign_24"
  op: "Assign"
  input: "Train/Model/beta2_power"
  input: "save/RestoreV2_24"
  attr {
    key: "T"
    value {
      type: DT_FLOAT
    }
  }
  attr {
    key: "_class"
    value {
      list {
        s: "loc:@Model/embedding_weights"
      }
    }
  }
  attr {
    key: "_output_shapes"
    value {
      list {
        shape {
        }
      }
    }
  }
  attr {
    key: "use_locking"
    value {
      b: true
    }
  }
  attr {
    key: "validate_shape"
    value {
      b: true
    }
  }
}
node {
  name: "save/RestoreV2_25/tensor_names"
  op: "Const"
  attr {
    key: "_output_shapes"
    value {
      list {
        shape {
          dim {
            size: 1
          }
        }
      }
    }
  }
  attr {
    key: "dtype"
    value {
      type: DT_STRING
    }
  }
  attr {
    key: "value"
    value {
      tensor {
        dtype: DT_STRING
        tensor_shape {
          dim {
            size: 1
          }
        }
        string_val: "Valid/Model/beta1_power"
      }
    }
  }
}
node {
  name: "save/RestoreV2_25/shape_and_slices"
  op: "Const"
  attr {
    key: "_output_shapes"
    value {
      list {
        shape {
          dim {
            size: 1
          }
        }
      }
    }
  }
  attr {
    key: "dtype"
    value {
      type: DT_STRING
    }
  }
  attr {
    key: "value"
    value {
      tensor {
        dtype: DT_STRING
        tensor_shape {
          dim {
            size: 1
          }
        }
        string_val: ""
      }
    }
  }
}
node {
  name: "save/RestoreV2_25"
  op: "RestoreV2"
  input: "save/Const"
  input: "save/RestoreV2_25/tensor_names"
  input: "save/RestoreV2_25/shape_and_slices"
  attr {
    key: "_output_shapes"
    value {
      list {
        shape {
          unknown_rank: true
        }
      }
    }
  }
  attr {
    key: "dtypes"
    value {
      list {
        type: DT_FLOAT
      }
    }
  }
}
node {
  name: "save/Assign_25"
  op: "Assign"
  input: "Valid/Model/beta1_power"
  input: "save/RestoreV2_25"
  attr {
    key: "T"
    value {
      type: DT_FLOAT
    }
  }
  attr {
    key: "_class"
    value {
      list {
        s: "loc:@Model/embedding_weights"
      }
    }
  }
  attr {
    key: "_output_shapes"
    value {
      list {
        shape {
        }
      }
    }
  }
  attr {
    key: "use_locking"
    value {
      b: true
    }
  }
  attr {
    key: "validate_shape"
    value {
      b: true
    }
  }
}
node {
  name: "save/RestoreV2_26/tensor_names"
  op: "Const"
  attr {
    key: "_output_shapes"
    value {
      list {
        shape {
          dim {
            size: 1
          }
        }
      }
    }
  }
  attr {
    key: "dtype"
    value {
      type: DT_STRING
    }
  }
  attr {
    key: "value"
    value {
      tensor {
        dtype: DT_STRING
        tensor_shape {
          dim {
            size: 1
          }
        }
        string_val: "Valid/Model/beta2_power"
      }
    }
  }
}
node {
  name: "save/RestoreV2_26/shape_and_slices"
  op: "Const"
  attr {
    key: "_output_shapes"
    value {
      list {
        shape {
          dim {
            size: 1
          }
        }
      }
    }
  }
  attr {
    key: "dtype"
    value {
      type: DT_STRING
    }
  }
  attr {
    key: "value"
    value {
      tensor {
        dtype: DT_STRING
        tensor_shape {
          dim {
            size: 1
          }
        }
        string_val: ""
      }
    }
  }
}
node {
  name: "save/RestoreV2_26"
  op: "RestoreV2"
  input: "save/Const"
  input: "save/RestoreV2_26/tensor_names"
  input: "save/RestoreV2_26/shape_and_slices"
  attr {
    key: "_output_shapes"
    value {
      list {
        shape {
          unknown_rank: true
        }
      }
    }
  }
  attr {
    key: "dtypes"
    value {
      list {
        type: DT_FLOAT
      }
    }
  }
}
node {
  name: "save/Assign_26"
  op: "Assign"
  input: "Valid/Model/beta2_power"
  input: "save/RestoreV2_26"
  attr {
    key: "T"
    value {
      type: DT_FLOAT
    }
  }
  attr {
    key: "_class"
    value {
      list {
        s: "loc:@Model/embedding_weights"
      }
    }
  }
  attr {
    key: "_output_shapes"
    value {
      list {
        shape {
        }
      }
    }
  }
  attr {
    key: "use_locking"
    value {
      b: true
    }
  }
  attr {
    key: "validate_shape"
    value {
      b: true
    }
  }
}
node {
  name: "save/restore_all"
  op: "NoOp"
  input: "^save/Assign"
  input: "^save/Assign_1"
  input: "^save/Assign_2"
  input: "^save/Assign_3"
  input: "^save/Assign_4"
  input: "^save/Assign_5"
  input: "^save/Assign_6"
  input: "^save/Assign_7"
  input: "^save/Assign_8"
  input: "^save/Assign_9"
  input: "^save/Assign_10"
  input: "^save/Assign_11"
  input: "^save/Assign_12"
  input: "^save/Assign_13"
  input: "^save/Assign_14"
  input: "^save/Assign_15"
  input: "^save/Assign_16"
  input: "^save/Assign_17"
  input: "^save/Assign_18"
  input: "^save/Assign_19"
  input: "^save/Assign_20"
  input: "^save/Assign_21"
  input: "^save/Assign_22"
  input: "^save/Assign_23"
  input: "^save/Assign_24"
  input: "^save/Assign_25"
  input: "^save/Assign_26"
}
versions {
  producer: 21
}
